app/www/static/model.onnx (onnx, 101776 bytes, 6 tensors)

StatefulPartitionedCall/sequential/dense/MatMul/ReadVariableOp:0 f4 [576, 10]
0	0xbe8f2ce8	-0.27963948
1	0x3dd74f46	0.10513167
2	0xbab9e28f	-0.00141819
3	0x3d01fe80	0.03173685
4	0x3e4a2bf9	0.19743337
5	0xbec49f26	-0.3840267
6	0xbd6c80c0	-0.057739973
7	0xbe1d05fd	-0.15334316
8	0xbe64bbf3	-0.22337322
9	0x3e404c68	0.18779147
10	0xbb80e000	-0.003932953
11	0xbda22122	-0.07916476
12	0xbc35c768	-0.011094905
13	0xbca42a0c	-0.02003958
14	0x3d624a26	0.055246495
15	0xbd763699	-0.060110662
16	0x3d13d9be	0.036096327
17	0xbd619dd2	-0.05508215
18	0x3dba3d4f	0.09093725
19	0x3d74741e	0.05968105
20	0xbc879081	-0.016548397
21	0x3d15ac77	0.03654143
22	0xbead1240	-0.33802986
23	0xbe491764	-0.19637829
24	0x3ddf0fad	0.10891662
25	0x3e5682e1	0.20948364
26	0xbeeab6f7	-0.45842716
27	0x3de9c9f8	0.114154756
28	0x3e4fb9c2	0.20285705
29	0xbdadd2a7	-0.08487444
30	0x3cb9dbdf	0.02268785
31	0x3d4fa753	0.050696682
32	0xbd6196b4	-0.055075362
33	0xbd13a6cc	-0.03604774
34	0x3c7c9d9e	0.015418438
35	0xbd5e6d3d	-0.054303396
36	0xbdfbb1d9	-0.12289781
37	0xbcbc8a9f	-0.023015318
38	0x3d08b764	0.03337802
39	0x3d60a048	0.054840356
40	0x3dc9b992	0.09849848
41	0x3c9f4088	0.01943995
42	0xbd8a97b4	-0.06767216
43	0x3d78e73a	0.06076739
44	0x3d412741	0.047156576
45	0xbd95b4ca	-0.073098734
46	0xbe48d841	-0.19613744
47	0xbd2ced71	-0.04221863
48	0xbe3adc11	-0.18248011
49	0xbddb4087	-0.10705667
50	0xbc81e917	-0.015858216
51	0xbd582058	-0.05276522
52	0xbd5e00a0	-0.054199815
53	0x3d590fcf	0.052993592
54	0xbc882c05	-0.016622553
55	0x3c3deadd	0.01159164
56	0x3c2fbe68	0.010726549
57	0xbcf4243c	-0.029802434
58	0x3d95acc4	0.07308343
59	0xbc1ef689	-0.009702333
60	0x3d5e1a4d	0.0542243
61	0x3bf76455	0.0075498023
62	0x3d2d53cb	0.04231624
63	0xbd743feb	-0.05963127
64	0x3b10c9e6	0.0022092997
65	0xbde87f5e	-0.11352418
66	0xbded08a2	-0.11573912
67	0xbc6d40e6	-0.014480805
68	0x3c4367b8	0.011926584
69	0xbd0b3744	-0.033988252
70	0xbc74e6db	-0.014947618
71	0x3cac8956	0.02106158
72	0xbc472dfc	-0.01215696
73	0x3cd78e1b	0.026312878
74	0xbed832cb	-0.42226252
75	0xbcb80ed6	-0.022468012
76	0x3d9fd626	0.078045174
77	0x3e55d718	0.20882833
78	0xbc1c6a27	-0.009546793
79	0x3d958a2c	0.07301745
80	0xbd745680	-0.059652805
81	0xbd487f01	-0.048949245
82	0x3c72d47d	0.014821169
83	0x3d835588	0.06412798
84	0x3cb9b81e	0.022670802
85	0x3dc59410	0.09647381
86	0xbdce86be	-0.10084294
87	0xbd2d778f	-0.042350348
88	0xbd805cf0	-0.062677264
89	0x3d4d9b0d	0.050196696
90	0xbd62c36c	-0.05536215
91	0xbce8442d	-0.028352821
92	0xbd420d3c	-0.047375903
93	0xbdee3ed5	-0.11633078
94	0xbe2aec17	-0.16691624
95	0xbe07d260	-0.13263845
96	0x3e160ac1	0.1465254
97	0x3e8a8558	0.27054858
98	0xbdb048f8	-0.08607668
99	0x3d41b916	0.047295652
100	0xbe537050	-0.20648313
101	0x3e2f4e0f	0.1711962
102	0x3d9e6543	0.07734158
103	0x3d9df2a2	0.07712294
104	0xbe9537fa	-0.2914427
105	0xbbfa5bdc	-0.007640345
106	0xbf03f4f3	-0.5154564
107	0x3e36186e	0.17782757
108	0xbe02851b	-0.12746088
109	0xbd410455	-0.047123272
110	0xbb4482f2	-0.0029985276
111	0x3e09645f	0.13417195
112	0xbc602c70	-0.01368247
113	0x3d337335	0.04381104
114	0x3d9ab58f	0.07554161
115	0x3dca8d35	0.09890214
116	0xbe36ebdf	-0.17863415
117	0xbd5ae2f3	-0.053439092
118	0x3ca76fa8	0.020438984
119	0xbe719b58	-0.23594415
120	0xbe43e281	-0.19129373
121	0x3b9553dd	0.0045571164
122	0xbea4dbde	-0.32198995
123	0xbe4889de	-0.19583842
124	0xbe3f2bcf	-0.18669055
125	0x3d89be1b	0.06725713
126	0x3d7571a5	0.059922833
127	0xbe06a819	-0.13150062
128	0x3e4505e0	0.19240522
129	0x3daea3fb	0.085273705
130	0x3db6753a	0.08909078
131	0x3bb315e4	0.005465256
132	0xbd8c1c16	-0.068412945
133	0xbc7dc8df	-0.015489786
134	0x3ce0c777	0.027438862
135	0xbda1f0cc	-0.079072565
136	0x3c0a8f1a	0.00845697
137	0x3d75a5fd	0.059972752
138	0xbcfe6a3c	-0.031056516
139	0xbdc85cb9	-0.097833104
140	0x3e215fa9	0.15759148
141	0xbea95cf5	-0.33078733
142	0xbe5cf48b	-0.2157766
143	0xbea426a0	-0.3206072
144	0xbe140910	-0.14456582
145	0xbda491b5	-0.08035604
146	0xbdd8ca0a	-0.10585411
147	0xbd9953e1	-0.07486702
148	0x3e8c2517	0.27372047
149	0x3e37f8ed	0.17966051
150	0x3d5d4552	0.054021187
151	0xbdb2bccd	-0.08727417
152	0xbd973e5d	-0.07384942
153	0x3d772706	0.06033995
154	0xbd7cf76b	-0.061759394
155	0xbbb78bcd	-0.0056013823
156	0xbd8465d0	-0.06464732
157	0x3c3d4aa0	0.0115534365
158	0xbd6690f9	-0.0562906
159	0xbe13af64	-0.14422375
160	0x3d10e66e	0.035376005
161	0xba617c07	-0.00086015504
162	0xbce08086	-0.027405035
163	0xbda15536	-0.07877581
164	0xbd846e22	-0.06466319
165	0x3d5b10bf	0.053482767
166	0xbc13a0e8	-0.009010531
167	0xbd8f5920	-0.06999421
168	0xbd15e4eb	-0.036595266
169	0xbc4a3268	-0.012341119
170	0xbca3f138	-0.020012483
171	0xbf3cd1dc	-0.7375772
172	0xbe053a8b	-0.13010614
173	0xbe5832ee	-0.21113178
174	0x3e0cb4db	0.13740866
175	0xbdb9560b	-0.090496145
176	0x3ead5dd1	0.3386064
177	0xbf072522	-0.52791035
178	0x3dc4cf76	0.096098825
179	0x3e1b058e	0.15138838
180	0xbe191dbf	-0.14952753
181	0xbe636cbd	-0.22209449
182	0xbe84e582	-0.2595635
183	0xbe4f2c85	-0.20231827
184	0x3e0cc0ae	0.13745376
185	0xbaff2014	-0.0019464516
186	0x3e42385b	0.1896681
187	0xbee00ae4	-0.4375831
188	0xbd82be03	-0.06383898
189	0x3ddd67e0	0.10810828
190	0xbc4b0dfd	-0.012393472
191	0xbdb7432d	-0.0894836
192	0x3d8ea9ec	0.06966004
193	0x3e0d3fe7	0.13793908
194	0xbdba1562	-0.0908611
195	0xbdd69eb7	-0.10479491
196	0xbe1ba22d	-0.15198584
197	0x3dbc9f39	0.09210057
198	0xbe2b97c6	-0.16757116
199	0x3d0003fe	0.031253807
200	0x3e1d5003	0.15362553
201	0x3dd4590b	0.10368546
202	0xbc6a8e8a	-0.0143162105
203	0x3e1d8370	0.1538217
204	0xbd99394f	-0.07481634
205	0xbdb2daa4	-0.08733109
206	0xbe133af0	-0.14377952
207	0x3dc2d3d8	0.09513062
208	0xbf26e818	-0.65197897
209	0x3e1d0b04	0.15336233
210	0x3da3e623	0.080028795
211	0x3daff0f5	0.08590881
212	0xbcca2760	-0.024676979
213	0xbd7f5a8f	-0.062342223
214	0x3d99c66f	0.07508551
215	0x3d8edc89	0.069756575
216	0xbb357b40	-0.002769187
217	0xbd9a9fb6	-0.07549994
218	0x3db3a429	0.087715454
219	0xbb9a6b80	-0.004712522
220	0xbdcc9b1d	-0.09990523
221	0xbdf64f5f	-0.120268576
222	0xbe6f4ac5	-0.23368366
223	0xbe4c2a56	-0.19938025
224	0xbea1b107	-0.31580374
225	0x3e46ac3f	0.19401644
226	0xbe3434dc	-0.17598289
227	0x3bcfbfad	0.006339988
228	0x3e8d2ebd	0.2757472
229	0x3e1dd68f	0.15413879
230	0xbdb918ec	-0.090379566
231	0xbdc8f5d9	-0.09812517
232	0xbd85b536	-0.06528704
233	0xbdbcd03d	-0.09219406
234	0xbd23572f	-0.039878067
235	0xbc9889cf	-0.0186204
236	0xbdcde3ae	-0.10053192
237	0x3d5f19a3	0.05446781
238	0x3db7c0c1	0.08972312
239	0x3d8c4889	0.068497725
240	0xbd7dc78b	-0.061957877
241	0x3e0368bc	0.12832922
242	0x3e56706d	0.20941325
243	0x3e3988d2	0.18118599
244	0xbf0dba7a	-0.55362666
245	0xbe032bbd	-0.12809654
246	0xbeb3c6eb	-0.351127
247	0x3e1cd281	0.15314676
248	0xbcff633c	-0.031175248
249	0xbdf2eeed	-0.11861978
250	0xbdf03d3b	-0.11730429
251	0xbe2e81c8	-0.17041695
252	0xbe3a1974	-0.18173772
253	0xbea8e817	-0.3298957
254	0x3e10e2d4	0.14149028
255	0x3e556f67	0.20843278

StatefulPartitionedCall/sequential/dense/BiasAdd/ReadVariableOp:0 f4 [10]
0	0x3dabfb98	0.08397597
1	0xbe7efd60	-0.24901342
2	0x3dbbdceb	0.09172996
3	0x3e1656a9	0.14681496
4	0x3e1a8a6c	0.15091866
5	0xbe1369c2	-0.14395812
6	0xbc2870fa	-0.010280842
7	0xbd9a75d4	-0.07542005
8	0x3e680886	0.22659501
9	0xbe4355fc	-0.19075769

StatefulPartitionedCall/sequential/conv2d_1/Conv2D/ReadVariableOp:0 f4 [64, 32, 3, 3]
0	0x3de16e5e	0.11007379
1	0x3d32094a	0.04346589
2	0xbdcde6b9	-0.100537725
3	0xbe671809	-0.22567762
4	0xbd93404b	-0.07189997
5	0xbc144a5f	-0.009050935
6	0x3c815de6	0.015791845
7	0xbc41d701	-0.011831046
8	0xbd118c3c	-0.03553413
9	0xbd010cba	-0.031506278
10	0x3d7eaf68	0.062179
11	0x3d6bd586	0.05757668
12	0x3d9c966b	0.076458775
13	0x3d9803fe	0.074226364
14	0x3d55a632	0.05216045
15	0xbd8e978c	-0.06962499
16	0xbcded2cc	-0.027200125
17	0xbd9cd8ed	-0.07658563
18	0x3da9e161	0.08294941
19	0x3cb85bad	0.022504652
20	0x3dbdff2b	0.09277185
21	0x3da48b72	0.080344096
22	0xbc890506	-0.016726028
23	0x3de5024a	0.11182077
24	0xbdda32b8	-0.10654205
25	0x3d105315	0.035235483
26	0xbd492177	-0.04910418
27	0xbe18064b	-0.1484615
28	0x3b987c3c	0.0046534818
29	0xbd0d460a	-0.034490623
30	0x3c8b8496	0.017030995
31	0x3d05311b	0.032517534
32	0x3d02d828	0.031944424
33	0xbd52efe4	-0.05149831
34	0x3d9c0de1	0.07619835
35	0x3d295443	0.041340124
36	0xbdde3a8a	-0.10851009
37	0x3e3dfc1e	0.18553206
38	0x3d444e78	0.047926396
39	0x3e07a05b	0.13244765
40	0xbe4ca298	-0.199839
41	0xbe89c419	-0.26907423
42	0xbed9ae93	-0.42516002
43	0xbe6a3d30	-0.22874904
44	0xbc09cdd7	-0.008410892
45	0xbd2b4629	-0.041814957
46	0xbf2aaaaa	-0.6666666
47	0xbf064f6a	-0.52464926
48	0xbea459bc	-0.32099712
49	0xbd90f0a3	-0.07077148
50	0x3edf4170	0.43604612
51	0x3ee8a4e0	0.4543829
52	0x3f037834	0.5135529
53	0x3d0a236c	0.033725187
54	0xbe00073d	-0.12502761
55	0xbec67b31	-0.38765863
56	0xbe02bc63	-0.12767176
57	0xbe45ab6f	-0.19303678
58	0x3e158409	0.14601149
59	0x3e9398f7	0.2882764
60	0x3ec782c4	0.38966954
61	0x3f110885	0.56653625
62	0x3e49728a	0.196726
63	0xbdc4813e	-0.095949635
64	0x3df33b66	0.11876564
65	0xbd089b59	-0.033351276
66	0x3d98e47a	0.074654534
67	0xbca5c4fe	-0.020235535
68	0x3cdc19af	0.026867716
69	0x3d5ce78c	0.053931758
70	0xbc107d8d	-0.008818996
71	0xbdcd7185	-0.10031418
72	0xbcad7868	-0.021175578
73	0x3e996905	0.29962936
74	0x3eabede7	0.33579943
75	0x3d9f43e4	0.07776621
76	0xbd6d152e	-0.057881527
77	0xbe820c9f	-0.25400254
78	0xbf07f09b	-0.5310151
79	0xbf0788d0	-0.52943134
80	0xbe9dd102	-0.30823523
81	0xbc048b7c	-0.008089896
82	0xbb405407	-0.002934696
83	0x3d96fa4e	0.073719606
84	0xbdef6f78	-0.11691183
85	0xbe1d5baa	-0.15366998
86	0xba558ef5	-0.00081466074
87	0x3de2233e	0.11041878
88	0xbdd2a57b	-0.10285469
89	0xbd40c028	-0.047058254
90	0x3d9565b0	0.07294786
91	0x3d96a3e0	0.073554754
92	0xbe001555	-0.12508138
93	0x3dc09950	0.09404242
94	0xbe5b020d	-0.21387501
95	0xbe4c7b38	-0.19968879
96	0xbe4c4550	-0.19948316
97	0xbd3c6cdc	-0.046002254
98	0x3d5c8b02	0.053843506
99	0x3d87f4bc	0.06638476
100	0x3e0a7f2f	0.13525079
101	0xbdb79347	-0.08963638
102	0xbe126ee5	-0.14300115
103	0x3c702ccb	0.014659117
104	0xbda259a2	-0.07927252
105	0xbeaa845e	-0.33304113
106	0xbe5bd1c1	-0.21466734
107	0xbdd83b83	-0.10558226
108	0x3ca0df7d	0.019637818
109	0x3dfcfab2	0.12352504
110	0xbcf78ea7	-0.03021939
111	0x3da286c7	0.07935863
112	0x3d5ba42b	0.05362336
113	0xbd65b4c2	-0.056080587
114	0xbd83ea73	-0.06441202
115	0xbc4748be	-0.012163339
116	0x3d30c7a5	0.043159146
117	0x3d4fc474	0.05072446
118	0xbe7d3324	-0.2472654
119	0xbf1d75a5	-0.61507636
120	0xbe393560	-0.18086767
121	0xbe7575ed	-0.23970766
122	0x3d8211a9	0.06351025
123	0x3e27b5b1	0.16377904
124	0x3e85b760	0.26116467
125	0xbd4ab6d1	-0.049490754
126	0xbdf5b8a5	-0.11998109
127	0xbf128939	-0.57240635
128	0xbef1aeee	-0.47203773
129	0xbe924d60	-0.28574657
130	0xbdede6ba	-0.11616273
131	0xbcbe05db	-0.023196151
132	0x3eb79570	0.358562
133	0x3e3f31e6	0.18671378
134	0x3d7f56e3	0.06233872
135	0xbd323676	-0.04350897
136	0xbe4a5cff	-0.19762038
137	0xbe11455e	-0.14186618
138	0xbe8cf6b5	-0.27531973
139	0x3bdaad6c	0.0066735055
140	0xbccc4cbc	-0.024938934
141	0x3dd05b5b	0.10173675
142	0x3e10c49a	0.14137498
143	0xbde530c4	-0.11190942
144	0x3daaac4e	0.08333646
145	0x3ded8771	0.11598099
146	0x3e279637	0.16365896
147	0xbd06d825	-0.032920975
148	0x3c3c8473	0.011506188
149	0x39d80d13	0.00041208472
150	0xbdae315c	-0.08505508
151	0xbd51290a	-0.05106453
152	0xbce722b8	-0.028214797
153	0x3e93506b	0.28772292
154	0x3e60ab5e	0.21940371
155	0x3dbe109f	0.09280514
156	0x3bc0a811	0.00587941
157	0xbdb5d3f0	-0.088783145
158	0xbaf71b84	-0.0018852805
159	0x3e4a04fe	0.19728467
160	0xbd46c26a	-0.04852525
161	0xbdabd2cf	-0.08389818
162	0xbe263666	-0.16231689
163	0x3bd9035b	0.0066227145
164	0x3e26fc7e	0.16307256
165	0xbdf2dfdb	-0.11859103
166	0x3c861c65	0.016370961
167	0x3c2094b3	0.009801078
168	0x3e49691b	0.19669001
169	0x3d9e594e	0.07731877
170	0x3d8c2c70	0.06844413
171	0xbe50e2de	-0.20399043
172	0xbed3f0d5	-0.41394678
173	0xbd5bc090	-0.05365044
174	0xbdeaee5e	-0.11471246
175	0x3ce4221b	0.027848294
176	0x3e5f3f75	0.2180155
177	0x3eec9485	0.4620706
178	0x3e51c286	0.20484361
179	0xbd93679d	-0.07197497
180	0xbe4a2060	-0.19738913
181	0x3d3e7015	0.04649361
182	0x3ca777f0	0.020442933
183	0x3b0350db	0.0020037207
184	0x3ce23441	0.027612807
185	0xbe01ad60	-0.12663794
186	0xbda96abd	-0.08272312
187	0x3b46e7eb	0.0030350636
188	0xbd3dc100	-0.046326637
189	0x3d9e1c72	0.07720269
190	0xbf180d71	-0.5939551
191	0xbeaf31f8	-0.3421781
192	0xbeee839b	-0.46584782
193	0x3c4c3250	0.012463167
194	0x3e0d225b	0.13782637
195	0x3ed3000b	0.4121097
196	0x3f08fb83	0.53508776
197	0x3e04c69d	0.1296639
198	0xbe0bd39a	-0.13654938
199	0xbd46c6fe	-0.048529617
200	0x3e4b2e25	0.19841821
201	0x3da662b9	0.081242986
202	0x3e31a96f	0.1734979
203	0xbc6bdd75	-0.014396061
204	0x3e54b0cf	0.20770572
205	0xbe06cae4	-0.13163334
206	0xbdec08e5	-0.11525134
207	0xbd393785	-0.045218963
208	0xbe2c2301	-0.16810228
209	0xbc864bd8	-0.016393587
210	0x3d8ef714	0.0698072
211	0xbe353602	-0.17696384
212	0xbd5a0025	-0.053222794
213	0xbe77ef69	-0.24212421
214	0xbcd3a197	-0.025833888
215	0xbe818642	-0.25297743
216	0xbdcae091	-0.09906114
217	0xbc657cb5	-0.014006783
218	0x3e1ad55b	0.15120451
219	0xbe844434	-0.25833285
220	0x3e0f1191	0.13971545
221	0x3e2aaf50	0.16668439
222	0x3ebf0b94	0.3731352
223	0x3ea2a11a	0.31763536
224	0xbaec2e17	-0.0018019107
225	0xbed6a8d8	-0.41925693
226	0xbec0506c	-0.37561357
227	0xbe22070d	-0.15823002
228	0xbe414728	-0.188748
229	0x3d4b27c8	0.049598485
230	0x3d2c199c	0.04201661
231	0x3e9e05b1	0.30863717
232	0x3e1379b4	0.14401895
233	0xbccb450c	-0.024813198
234	0x3deb8fcc	0.115020365
235	0xbe86b6a8	-0.2631123
236	0xbdd58968	-0.10426599
237	0xbdc15900	-0.094408035
238	0x39bcf164	0.00036038004
239	0x3d93efcb	0.07223471
240	0x3e14b488	0.14521992
241	0x3e7e473b	0.2483186
242	0x3e1ead5e	0.15495822
243	0x3e74ec4f	0.2391827
244	0x3ce990ee	0.02851149
245	0x3d02c084	0.03192188
246	0xbb6f4f82	-0.0036515896
247	0xbe633364	-0.22187573
248	0xbd360d39	-0.044446204
249	0xbedb04c6	-0.4277708
250	0xbd81dda9	-0.063411064
251	0xbdaa3a33	-0.08311882
252	0x3d55fb89	0.052241836
253	0xbe1ba054	-0.15197879
254	0xbeefb9f9	-0.46821573
255	0xbeafdc92	-0.3434797

StatefulPartitionedCall/sequential/conv2d_1/BiasAdd/ReadVariableOp:0 f4 [64]
0	0xbd5798ab	-0.05263583
1	0xbbe2b3a1	-0.006918386
2	0xbd0b9140	-0.034074068
3	0x3d08c9bb	0.03339551
4	0x3e492cb8	0.19645965
5	0xbc70b0f6	-0.014690628
6	0xbd63b829	-0.05559555
7	0xbe76ca70	-0.24100661
8	0xbc90a1b9	-0.01765524
9	0xbe3994e0	-0.18123198
10	0xbd11fbc0	-0.035640478
11	0x3bbdc6f2	0.0057915384
12	0xbc662933	-0.014047909
13	0xbc835d48	-0.01603569
14	0xbd1e3676	-0.038626157
15	0xbd46ca2b	-0.048532646
16	0xbcf6847a	-0.030092467
17	0xbd754fed	-0.059890676
18	0x39fc15b0	0.00048081344
19	0x3be840ee	0.0070878183
20	0x3c0c15df	0.008550136
21	0xbc28689d	-0.010278848
22	0xbcca909f	-0.024727164
23	0xbd1b094f	-0.037850674
24	0xbdb8e796	-0.090285465
25	0x3d16761e	0.03673374
26	0xbd5650ec	-0.052323267
27	0xbe0ab404	-0.13545233
28	0xbc4ea6f3	-0.012613046
29	0xbd21257a	-0.03934238
30	0x3ca2e908	0.019886509
31	0xbc1ca03c	-0.009559687
32	0xbd17a88f	-0.037025984
33	0xbda00bf8	-0.07814783
34	0xbd1fb396	-0.038989626
35	0x3d1a358d	0.037648726
36	0xbd9d15c7	-0.07670169
37	0xbccc4dda	-0.024939466
38	0xbd665952	-0.056237526
39	0xbd1dd017	-0.038528528
40	0x3d387761	0.045035724
41	0xbcbc6ba0	-0.023000538
42	0xbc374c99	-0.011187696
43	0xbb87c83a	-0.004143742
44	0x3c4cfe13	0.012511748
45	0x3e2bf6e0	0.16793394
46	0xbdcbd0d0	-0.09951937
47	0xbd07d3d2	-0.033160992
48	0xbd0f2bc7	-0.03495386
49	0x3c339aa8	0.010962166
50	0xbd5d7fb4	-0.054076865
51	0xbd94b089	-0.07260234
52	0xbc5d9b08	-0.013525732
53	0xbe0656d0	-0.13119054
54	0xbe0fd6ca	-0.1404678
55	0xbd3c27b3	-0.045936298
56	0x3c39c1e7	0.011337734
57	0xbce5962a	-0.028025705
58	0xbd517ba1	-0.051143292
59	0x3e64256a	0.22279897
60	0xbcd8f1f0	-0.026482552
61	0xbd707964	-0.058709517
62	0xbc9ebbbb	-0.019376626
63	0x3e515637	0.20443045

StatefulPartitionedCall/sequential/conv2d/Conv2D/ReadVariableOp:0 f4 [32, 1, 3, 3]
0	0x3e82b125	0.25525776
1	0x3e88c6a0	0.2671404
2	0x3e950e54	0.29112494
3	0x3dff76e5	0.12473849
4	0x3d9297d0	0.07157862
5	0xbcdc8969	-0.026920991
6	0xbe6e3cc5	-0.23265369
7	0xbec4bc2e	-0.3842482
8	0xbe5e4e3d	-0.21709533
9	0x3d28f760	0.04125154
10	0x3dbd8a11	0.0925485
11	0x3d0b9034	0.03407307
12	0x3d4c45d3	0.049871277
13	0x3e06e8bc	0.13174719
14	0x3de92b77	0.113852434
15	0xbdd12e50	-0.102139115
16	0xb966126c	-0.00021941372
17	0x3dfcd9c0	0.1234622
18	0xbdf15b54	-0.117849976
19	0xbd995f14	-0.07488838
20	0x3da9ac2c	0.08284792
21	0xbe2dc1a0	-0.16968393
22	0xbe9d5508	-0.30728936
23	0xbebc5a3b	-0.3678759
24	0x3e8e8a1a	0.27839738
25	0x3eb2b592	0.34904152
26	0x3e847c7f	0.25876233
27	0xbeaf06a7	-0.34184763
28	0x3d31872d	0.043341804
29	0x3ddd0f3e	0.10793923
30	0xbdb83416	-0.089943096
31	0x3bfc8435	0.00770619
32	0x3d89560e	0.06705867
33	0x3e21e665	0.15810545
34	0x3db30e6d	0.08742986
35	0x3d7b9227	0.06141868
36	0xbe368195	-0.17822869
37	0xbe82905c	-0.25500762
38	0xbec6515c	-0.38733947
39	0x3e694958	0.22781885
40	0x3d9be81b	0.0761263
41	0xbe732d22	-0.23747686
42	0x3ec38f69	0.3819535
43	0x3e9f31a5	0.31092563
44	0x3d7b9649	0.06142262
45	0xbca44d39	-0.020056354
46	0x3e2de95a	0.16983548
47	0xbe93009b	-0.287114
48	0x3c951d74	0.01820252
49	0xbf069c61	-0.52582365
50	0x3da09a1f	0.07841896
51	0xbe01392b	-0.12619464
52	0x3e6b1ceb	0.2296025
53	0x3ea6ed19	0.32602766
54	0xbe5f18d3	-0.21786813
55	0xbe83aca1	-0.25717643
56	0x3de84b1e	0.113424525
57	0xbe051fd2	-0.1300042
58	0x3ec3b0fe	0.38220972
59	0x3e900161	0.28126052
60	0x3e0c9ce8	0.1373173
61	0x3d69137f	0.05690336
62	0xbec850e8	-0.39124227
63	0x3dc5c752	0.09657158
64	0x3dc13783	0.09434416
65	0x3d79e13b	0.061005812
66	0x3dcb7a3a	0.09935422
67	0x3dfed788	0.12443453
68	0x3dc45864	0.09587172
69	0x3db35277	0.08755963
70	0x3da9589f	0.08268856
71	0x3e1300ab	0.14355724
72	0x3e5f85e8	0.21828425
73	0x3ec23ae7	0.37935564
74	0x3ec15825	0.3776256
75	0xbf1923f3	-0.5982048
76	0xbe0271da	-0.12738743
77	0x3ebb6280	0.36598587
78	0xbf36bfd8	-0.7138648
79	0xbed0ba16	-0.40766972
80	0x3dabba2f	0.08385121
81	0x3e90bd4b	0.2826942
82	0x3e82eba6	0.2557041
83	0x3e36e293	0.17859869
84	0x3e045b7d	0.12925525
85	0x3e83b7ee	0.25726265
86	0x3e8843a6	0.26614112
87	0xbeeebe74	-0.4662968
88	0xbf00a209	-0.50247246
89	0xbec8b24f	-0.3919854
90	0xbe802f53	-0.25036106
91	0xbece7b5d	-0.40328494
92	0xbe614a5f	-0.22001027
93	0x3e51d444	0.20491129
94	0x3e4a88ea	0.19778791
95	0x3db6292c	0.08894572
96	0x3dec9f62	0.11553837
97	0x3e2414cc	0.16023558
98	0x3e0ec474	0.13942128
99	0xbd6964ac	-0.056980774
100	0x3cfd6a5c	0.030934505
101	0x3ea5aae2	0.32356936
102	0xbd65ec56	-0.05613359
103	0xbeae7b2c	-0.34078348
104	0x3ede8677	0.43461964
105	0x3dfb57ff	0.12272643
106	0xbf1af2b2	-0.60526574
107	0xbcba61df	-0.022751747
108	0xbd4153b5	-0.04719897
109	0x3d82aa36	0.063801214
110	0x3d5cb353	0.053881954
111	0x3d0966d2	0.033545323
112	0x3d833312	0.06406225
113	0x3da6c4c5	0.081429996
114	0xbb138f3c	-0.0022515794
115	0x3d47d6bd	0.048788775
116	0x3dd82180	0.105532646
117	0xbeb8926e	-0.36049217
118	0xbeb26c81	-0.34848407
119	0xbc3e92ee	-0.01163171
120	0xbe2eb6e5	-0.17061956
121	0x3d41a9d2	0.047281094
122	0x3e7229e4	0.23648793
123	0x3cdaafa6	0.026695084
124	0x3e705484	0.2346974
125	0x3e8624a4	0.2619983
126	0x3e9522fc	0.29128253
127	0x3eea9029	0.4581311
128	0x3dbff9a1	0.09373785
129	0x3eb50b46	0.35360163
130	0xbe700048	-0.23437607
131	0xbf21d7fb	-0.63220185
132	0xbdaf417a	-0.085574105
133	0xbf0b3db9	-0.54391056
134	0x3dda4447	0.10657554
135	0xbe2caa6b	-0.16861884
136	0xbe19e278	-0.15027797
137	0x3dd76003	0.1051636
138	0xbea2acbf	-0.3177242
139	0x3d7bd902	0.06148625
140	0xbd8ce3f4	-0.06879416
141	0xbd8a1e42	-0.067440525
142	0x3da06c4b	0.07833155
143	0x3e8f8d09	0.2803729
144	0x3d85f61e	0.06541084
145	0x3d5f6f2f	0.054549392
146	0x3ec329d9	0.38117865
147	0xbe559a10	-0.20859551
148	0xbec277f5	-0.37982145
149	0x3c8b8b90	0.017034322
150	0x3e9ade9b	0.3024796
151	0xbdebf0ae	-0.115205154
152	0xbe30a615	-0.17250855
153	0x3d1778cf	0.036980446
154	0xbde34739	-0.11097569
155	0xbe99afae	-0.30016845
156	0x3d939668	0.07206422
157	0x3e94b682	0.29045492
158	0x3d0ef16a	0.0348982
159	0xbe877839	-0.2645891
160	0x3b573b70	0.0032841824
161	0x3e80fc7e	0.25192636
162	0xbf13b96c	-0.57704806
163	0x3d6514cf	0.055928048
164	0x3e2e796c	0.17038506
165	0xbedd9658	-0.43278766
166	0x3e805ae9	0.2506936
167	0x3e756429	0.2396399
168	0xbe7fd91e	-0.24985167
169	0x3e1344f1	0.14381768
170	0x3e8f35a6	0.27970618
171	0x3e720dc5	0.23638065
172	0xbd358dd5	-0.044324715
173	0xbe734e08	-0.23760235
174	0x3ee2866e	0.44243187
175	0xbd28fd2b	-0.041257065
176	0xbea0239e	-0.31277174
177	0x3e97ecc7	0.29672834
178	0xbeba77d4	-0.36419547
179	0xbde21fe7	-0.11041241
180	0xbe9b8779	-0.30376795
181	0x3b4addf0	0.003095504
182	0x3dd160a6	0.10223512
183	0x3d0fdf92	0.035125323
184	0x3d35a381	0.044345383
185	0x3dbadebf	0.09124517
186	0x3dcec66f	0.10096442
187	0x3d733038	0.059372157
188	0x3bc47295	0.0059951046
189	0x3eae8d73	0.34092292
190	0xbf0063d5	-0.5015233
191	0xbca496fb	-0.020091524
192	0xbe5c6301	-0.21522142
193	0xbeee17ed	-0.4650263
194	0x3ebd4dbe	0.36973375
195	0xbdf0e667	-0.11762696
196	0x3e6c9898	0.23105085
197	0x3e5aa68f	0.213526
198	0x3dfe65c4	0.12421754
199	0xbe4503a6	-0.19239673
200	0xbe56e7ff	-0.20986937
201	0x3e9262a2	0.28590876
202	0x3de9b0e5	0.11410693
203	0xbef83d62	-0.4848433
204	0x3e9a3ab1	0.30122903
205	0x3eafb348	0.34316468
206	0xbee61d34	-0.44944155
207	0xbe3702dd	-0.17872186
208	0xbe9725c2	-0.29520994
209	0xbebec212	-0.3725744
210	0xbd900c0f	-0.0703355
211	0xbe715012	-0.235657
212	0xbe65e5aa	-0.22450891
213	0x3eaeac00	0.341156
214	0x3eb45aa7	0.35225412
215	0x3ebe3f09	0.37157467
216	0xbc91c5a0	-0.01779443
217	0x3c4f679f	0.012658983
218	0xbb87fe54	-0.0041501913
219	0xbd6d2e9d	-0.057905782
220	0xbdb27f37	-0.087156706
221	0x3e1b5549	0.15169252
222	0xbf164cbd	-0.58710843
223	0x3e45f893	0.19333105
224	0x3e8bc8fe	0.27301782
225	0x3e1a3f69	0.15063252
226	0x3e8418cd	0.25800171
227	0xbe8ef617	-0.27922127
228	0x3ea7863f	0.3271961
229	0x3e890858	0.26764178
230	0xbec00d7a	-0.37510282
231	0x3c9faba0	0.019491017
232	0xbe00fea9	-0.12597145
233	0xbe9dbb69	-0.30807045
234	0xbe1e823a	-0.15479365
235	0xbe476108	-0.19470608
236	0x3e9d6c50	0.30746698
237	0xbd4ff084	-0.050766483
238	0x3e69298f	0.2276976
239	0xbdfb3cac	-0.122674316
240	0xbdb38f48	-0.08767563
241	0x3e32725e	0.1742644
242	0xbe6ae437	-0.2293862
243	0x3b889f8f	0.0041694115
244	0x3d4d84fe	0.05017566
245	0x3ea46524	0.32108414
246	0xbe87a810	-0.2649541
247	0xbee89ca0	-0.45431995
248	0xbe2f8134	-0.17139131
249	0x3e996137	0.29956982
250	0x3e8b6de1	0.27232268
251	0xbdb317a8	-0.087447464
252	0xbf3f2734	-0.74669194
253	0xbf0abe5a	-0.54196703
254	0x3d51c062	0.05120886
255	0x3d00b45c	0.031422004

StatefulPartitionedCall/sequential/conv2d/BiasAdd/ReadVariableOp:0 f4 [32]
0	0xbe6b717d	-0.22992511
1	0xbeb43f51	-0.35204557
2	0x3c2bdba6	0.01048938
3	0xbe867545	-0.26261345
4	0x3c636122	0.013878139
5	0x3dc0bb5f	0.09410738
6	0x3c924d46	0.017859112
7	0xbe6c90d3	-0.23102121
8	0xbe03c087	-0.12866412
9	0xbc7c4913	-0.015398282
10	0xbd0295f1	-0.031881277
11	0x3de6ae61	0.11263729
12	0xbe7ef383	-0.2489758
13	0x3d1d5ca6	0.038418435
14	0x3cc6b780	0.024257421
15	0x3de388bc	0.111100644
16	0x3d10dcd3	0.035366844
17	0xbd382001	-0.044952396
18	0x3ca961f8	0.020676598
19	0x3dcb350e	0.09922229
20	0xbe828f9b	-0.25500187
21	0x3de43533	0.111429594
22	0x3de15578	0.1100263
23	0x3ca49320	0.020089686
24	0x3d7c56ad	0.061606098
25	0x3d26f73d	0.04076313
26	0x3dcedbbb	0.10100504
27	0xbbb38d52	-0.005479493
28	0xbe372768	-0.17886126
29	0xbdb46b94	-0.088095814
30	0xbbf2b9c1	-0.0074073975
31	0xbb6d8baa	-0.0036246576
