app/www/static/model.onnx (onnx, 34189 bytes, 6 tensors)

StatefulPartitionedCall/sequential/dense/MatMul/ReadVariableOp:0 f4 [288, 10]
-0.07853004 -0.14224954 0.032940492 -0.0764332 0.024904532 0.10626106 0.08931568 0.00444766
-0.10834716 -0.092177905 -0.14168386 -1.2529202 0.30768952 0.055140853 -0.67916685 0.00090920524
0.53490216 0.22170365 -0.2046262 0.23125863 0.24622872 -0.14486898 -0.07083283 -0.10549106
0.27384883 -0.03004318 -0.19945095 -0.19574915 -0.21351252 0.10193672 0.028472578 -0.054111354
-0.06473652 -0.13848212 0.0727503 -0.04061344 -0.020545693 0.05641993 0.045575604 -0.0862046
-0.3094318 0.2170277 0.17962556 0.3183347 -0.83130074 0.001561042 -0.93760204 0.39083838
-0.41527805 -0.32751963 -0.0991724 -0.14153406 -0.07883408 -0.12459299 0.096436426 0.12509601
0.031458616 -0.0037810206 0.12825333 0.035119206 -0.459722 0.1563824 -0.6985603 -0.62665665
-0.35558537 0.112866506 0.027501121 -0.4585657 0.33774927 0.14203721 -0.19589713 0.30300212
-0.6436296 -1.0335141 -0.08349449 0.40647435 0.1474063 -0.82234305 0.103358075 0.1335715
-0.21473135 -0.6932893 -0.34726366 -0.43820927 -0.69970965 0.2186732 0.5169957 0.09281825
0.20178303 -0.1184421 -0.58273774 0.14852487 -0.49740043 -0.48547772 -0.46399432 0.19916457
0.11278855 -0.10179236 0.27423236 0.16189365 -0.120196864 -0.13093325 -0.13262975 -0.004577324
-0.08576692 -0.12500519 -0.014773384 0.01871723 -0.05115504 -0.020483114 0.051836148 -0.1236793
-0.08706005 0.024796247 0.13538913 -0.12379994 0.044407725 -0.057843924 -0.020084992 0.087524414
0.08389848 -0.13956213 0.07362435 0.09691101 -0.005845452 -0.08290771 -0.1639422 0.0181506
-0.17062378 -0.020830287 0.09608324 -0.030760653 -0.046047512 -0.16739874 0.06223965 0.1610275
-0.17883912 0.047764067 0.009996429 0.020651456 0.11323691 -0.52377 -0.13039613 -0.1434896
-0.04919997 0.06201341 -0.19424462 0.39355025 0.08060159 0.03099011 -0.25298482 0.15823577
-0.7621023 -0.12752458 -0.3506898 -0.040662974 -0.37512112 0.13578285 0.35429764 0.22556995
0.074135944 0.08591324 0.114319 0.07855652 0.08313134 -0.060787413 0.05532294 0.10610767
-0.085269734 0.034244888 -0.00978664 0.09287561 -0.026848342 -0.11229119 0.016006734 0.11754529
0.009414184 -0.06928861 -0.16806002 -0.10937721 -0.20578708 -0.2912936 0.03270157 0.066420004
-0.73779374 0.09658799 0.035823975 0.013020976 0.19809599 0.09933188 -0.2704714 -0.17067382
0.32401636 -0.060078364 0.14939022 -0.2181516 0.32125393 -0.29577693 -0.47112888 0.11992089
-0.29997256 0.2276837 -0.1892141 0.017605936 -0.14797953 0.2503008 -0.6787842 0.3081289
-0.30123356 -0.27653086 -0.09174159 -0.08355642 -0.30114433 -0.49351886 0.23163955 0.25008622
0.13732332 -0.33817318 0.022479188 -0.0044690985 -0.46705914 0.08540273 0.1231891 0.2592009
-0.528661 -0.049844448 -0.40761408 0.1966935 -0.18655288 -0.13422224 -0.39260322 -0.21197261
-0.34434104 -0.82722706 0.25281864 0.122867376 0.2588317 -0.6010862 0.03842512 0.011479446
-0.43287358 -0.4105806 -0.26762012 -0.25479385 0.10072435 0.043624386 0.15681133 -0.005152987
-0.095920846 0.076811075 -0.0027131683 -0.51328886 -0.21127045 0.040343557 -0.27864853 0.06535452
00000000: 5cd4 a0bd dda9 11be 9cec 063d 0289 9cbd
00000010: 9704 cc3c 669f d93d 24eb b63d adbd 913b
00000020: 1ee5 ddbd c5c7 bcbd 9315 11be b05f a0bf
00000030: 7b89 9d3e 60db 613d e1dd 2dbf bb57 6e3a
00000040: 59ef 083f 4806 633e 8889 51be 10cf 6c3e
00000050: 6223 7c3e 8958 14be ce10 91bd b20b d8bd
00000060: ea35 8c3e 1d1d f6bc df3c 4cbe 7772 48be
00000070: 07a3 5abe 33c4 d03d 533f e93c dea3 5dbd
00000080: 9594 84bd 42ce 0dbe 1cfe 943d 475a 26bd
00000090: 714f a8bc 9618 673d 7cad 3a3d 0a8c b0bd
000000a0: d86d 9ebe 823c 5e3e c3ef 373e c4fc a23e
000000b0: 20d0 54bf e19b cc3a b006 70bf f81b c83e
000000c0: 539f d4be a7b0 a7be e61a cbbd 4eee 10be
000000d0: c373 a1bd 9c2a ffbd 7680 c53d 2b19 003e
000000e0: c0da 003d 00cb 77bb d754 033e 28d9 0f3d
000000f0: af60 ebbe b522 203e d9d4 32bf 926c 20bf
00000100: 490f b6be 8e26 e73d 084a e13c 20c9 eabe
00000110: 79ed ac3e 3472 113e 4299 48be 1823 9b3e
00000120: e9c4 24bf 314a 84bf 29ff aabd 681d d03e
00000130: adf1 163e 1385 52bf 66ad d33d f8c6 083e
00000140: 89e2 5bbe 687b 31bf 8bcc b1be f75c e0be
00000150: 2c20 33bf deeb 5f3e d559 043f 7f17 be3d
00000160: 36a0 4e3e c691 f2bd 4d2e 15bf e716 183e
00000170: 45ab febe 8990 f8be aa90 edbe ccf1 4b3e
00000180: affd e63d 8378 d0bd 2f68 8c3e 73c7 253e
00000190: c629 f6bd 5e13 06be 18d0 07be 60fd 95bb
000001a0: 91a6 afbd 5c01 00be 100c 72bc e054 993c
000001b0: f287 51bd 34cc a7bc 2452 543d 934b fdbd
000001c0: 8a4c b2bd 8021 cb3c 73a3 0a3e d38a fdbd
000001d0: e0e4 353d c0ed 6cbd 4889 a4bc 0040 b33d
000001e0: f7d2 ab3d 60e9 0ebe 5dc8 963d 4879 c63d
000001f0: 358b bfbb 84cb a9bd 77e0 27be 91b0 943c
00000200: 00b8 2ebe 47a4 aabc 4ac7 c43d c4fd fbbc
00000210: 519c 3cbd 936a 2bbe 01ef 7e3d 65e4 243e
00000220: 9a21 37be 41a4 433d 10c8 233c 3e2d a93c
00000230: c1e8 e73d ca15 06bf 9086 05be f0ee 12be
00000240: e885 49bd c601 7e3d 10e8 46be 6b7f c93e
00000250: 7212 a53d f9de fd3c 3a87 81be 8f08 223e
00000260: 2319 43bf ce95 02be 9d8d b3be 388e 26bd
00000270: e00f c0be a90a 0b3e 8066 b53e cffb 663e
00000280: 96d4 973d 48f3 af3d 1420 ea3d 3ee2 a03d
00000290: c440 aa3d 39fc 78bd 4f9a 623d fa4e d93d
000002a0: e6a1 aebd 5e44 0c3d 2558 20bc 9135 be3d
000002b0: 0ef1 dbbc ecf8 e5bd 8e20 833c 96bb f03d
000002c0: f33d 1a3c 30e7 8dbd ed17 2cbe 2901 e0bd
000002d0: d9b9 52be 6f24 95be 15f2 053d 3607 883d
000002e0: 0de0 3cbf edcf c53d 29bc 123d ef55 553c
000002f0: add9 4a3e 836e cb3d 3a7b 8abe 1ec5 2ebe
00000300: 79e5 a53e bb14 76bd c0f9 183e 2263 5fbe
00000310: 657b a43e 1370 97be ce37 f1be 1599 f53d
00000320: 0196 99be ea25 693e 57c1 41be 533a 903c
00000330: f287 17be 6d27 803e cdc4 2dbf 12c3 9d3e
00000340: 493b 9abe 7495 8dbe 04e3 bbbd a11f abbd
00000350: 972f 9abe 81ae fcbe eb32 6d3e 4d0b 803e
00000360: 7c9e 0c3e 0925 adbe 4626 b83c 8471 92bb
00000370: 6022 efbe a0e7 ae3d 914a fc3d fbb5 843e
00000380: 5456 07bf b129 4cbd cbb2 d0be 056a 493e
00000390: b807 3fbe 8e71 09be 4a03 c9be 590f 59be
000003a0: 784d b0be 27c5 53bf 7271 813e e4a1 fb3d
000003b0: 9785 843e c9e0 19bf a963 1d3d 4914 3c3c
000003c0: 9ba1 ddbe 9f37 d2be 8105 89be 5774 82be
000003d0: 9148 ce3d 7caf 323d 2693 203e 63da a8bb
000003e0: 2672 c4bd 204f 9d3d 69cf 31bb e666 03bf
000003f0: 4857 58be 493f 253d 05ab 8ebe 97d8 853d

StatefulPartitionedCall/sequential/dense/BiasAdd/ReadVariableOp:0 f4 [10]
0.59906244 0.0021765549 -0.008626924 0.33571872 0.2623164 -0.004197425 -0.25185072 -0.42795062
-0.13615392 -0.012793957
00000000: 285c 193f 88a4 0e3b f157 0dbc 53e3 ab3e
00000010: 564e 863e 8e8a 89bb 94f2 80be 581c dbbe
00000020: ef6b 0bbe bf9d 51bc

StatefulPartitionedCall/sequential/conv2d_1/Conv2D/ReadVariableOp:0 f4 [32, 16, 3, 3]
0.08157825 0.017730676 -0.014472853 0.020352598 -0.0521201 0.039142825 0.04490141 0.04794289
-0.031303946 -0.06923197 0.0012423726 -0.0155879045 -0.10310654 -0.09072418 0.015322615 -0.030718843
0.06380522 -0.04020031 0.06835583 -0.046968672 -0.03838084 0.0052760467 0.036229007 0.0048398483
0.015934782 -0.03138642 -0.04055581 -0.060215563 -0.14768085 -0.07340521 0.06154627 -0.053584654
0.0066533885 -0.07446094 -0.0005363175 0.025873203 0.0022002493 0.029199462 -0.03426748 0.03402866
-0.122149795 -0.049608838 -0.005676834 -0.12241526 -0.11846804 -0.031510327 0.05332201 0.11688823
0.0061507467 0.03640215 -0.08479636 0.02302988 -0.015330089 -0.0565292 0.05393578 -0.06355102
-0.0070829783 0.029373664 0.08369989 0.052114494 -0.11465184 0.054958448 -0.016606912 0.05317533
0.06970738 -0.0082657775 -0.039564185 -0.056964517 0.06689508 -0.09482678 0.0695924 -0.0943295
-0.04845935 -0.075289816 -0.032865416 -0.062675364 -0.015023268 -0.01913126 -0.07980327 -0.057769343
0.04013348 0.02687101 0.060607206 -0.100317046 0.05548441 -0.112903275 -0.043119673 0.09060725
-0.0025194269 -0.0444346 -0.011543655 0.027862834 -0.108013056 -0.083777286 0.026506102 -0.14541018
-0.07977756 -0.015423023 -0.11665474 -0.04094845 -0.12821686 0.011716952 -0.025704587 0.010460646
-0.02717992 -0.023525843 -0.05623126 0.047924753 0.0074666054 -0.13693398 -0.07514328 0.005402488
0.031008152 -0.12611641 0.023373427 0.06555768 -0.12544805 0.045979217 0.09293909 -0.07765164
-0.09064113 -0.091469936 -0.083663754 -0.07524478 -0.072037674 0.069411375 -0.13859919 -0.07298502
-0.011555452 -0.10426482 0.009375092 -0.038600132 -0.08773995 0.04670107 0.056839526 -0.120573476
-0.11005643 -0.07253224 -0.113583066 -0.026448747 0.058297716 -0.023763696 0.009732395 0.0012512446
0.12174386 0.2991825 0.035044078 0.05716489 0.14551267 -0.099223465 0.008654051 -0.26171783
-0.45584983 0.00046996717 0.10823294 -0.07223261 0.12841195 0.15553494 0.028101796 -0.16798295
-0.082679555 -0.07035349 -0.25542244 -0.19498156 -0.09968506 0.14056742 0.068182796 -0.30876973
0.22257365 -0.010151362 -0.32957995 0.15741321 0.09935041 -0.085380435 0.041406736 -0.06712637
-0.09333644 -0.12866046 -0.099324636 -0.15923499 0.01865094 0.0496248 -0.122357525 0.21434475
0.22023353 -0.40124106 0.012614987 0.13967043 -0.48651543 -0.11926185 0.3111753 0.24458477
0.307795 0.56086564 0.1963921 0.61351794 0.11853437 -0.09973384 -0.12825933 -0.085244395
-0.14978021 0.05844094 0.02956706 -0.39615726 0.28670728 0.041526582 -0.7412972 -0.66051936
-0.35428086 -0.01868761 -0.23394117 0.14389567 -0.5287663 0.12072119 0.19530332 -0.16447975
0.027626667 0.16524343 -0.16456127 -0.18565442 0.06553854 -0.10474334 -0.27585158 -0.2706875
-0.3314285 0.12568237 0.34605512 -0.076946706 0.4519999 0.32701626 -0.06341897 0.36852017
0.022841051 -0.100891635 -0.059082855 0.10742149 -0.15078118 -0.082192145 -0.023673449 0.05006396
-0.0418188 0.072316736 -0.11744017 -0.42593455 -0.4163722 -0.4601526 -0.57731223 0.23029514
-0.0911125 0.41440707 0.23061779 -0.11204213 -0.057355903 0.12931697 0.044971704 -0.27033865
00000000: 7f12 a73d ec3f 913c 8c1f 6dbc 7eba a63c
00000010: e37b 55bd 3a54 203d 8aea 373d c45f 443d
00000020: 9138 00bd 7ec9 8dbd 1bd7 a23a 6964 7fbc
00000030: 8629 d3bd 99cd b9bd b50b 7b3c 15a6 fbbc
00000040: 50ac 823d 15a9 24bd 24fe 8b3d 3962 40bd
00000050: 3a35 1dbd b0e2 ac3b de64 143d 9797 9e3b
00000060: a989 823c 0c8f 00bd d91d 26bd 98a4 76bd
00000070: a639 17be 7955 96bd f117 7c3d 957b 5bbd
00000080: ab04 da3b fa7e 98bd a897 0cba 0af4 d33c
00000090: 0f32 103b b633 ef3c 0f5c 0cbd a361 0b3d
000000a0: ac29 fabd a332 4bbd bc04 babb dab4 fabd
000000b0: 5f9f f2bd f910 01bd 2e68 5a3d 1963 ef3d
000000c0: 348c c93b 6c1a 153d b7a9 adbd 29a9 bc3c
000000d0: 0e2b 7bbc 2a8b 67bd c4eb 5c3d 0a27 82bd
000000e0: 5418 e8bb 0aa1 f03c d96a ab3d 0276 553d
000000f0: 95ce eabd 1c1c 613d 380b 88bc 60ce 593d
00000100: bec2 8e3d 2f6d 07bc 0e0e 22bd a053 69bd
00000110: 4a00 893d 8b34 c2bd 7686 8e3d d32f c1bd
00000120: 507d 46bd 8c31 9abd e39d 06bd f15b 80bd
00000130: 2724 76bc 29b9 9cbc e66f a3bd 8c9f 6cbd
00000140: 0163 243d 9820 dc3c 433f 783d 0673 cdbd
00000150: 9f43 633d d539 e7bd 419e 30bd 4b90 b93d
00000160: f81c 25bb 0e01 36bd 9921 3dbc 9940 e43c
00000170: f335 ddbd 6d93 abbd 5323 d93c 68e6 14be
00000180: 6b62 a3bd d9b0 7cbc aee8 eebd 90b9 27bd
00000190: 484b 03be 75f8 3f3c 6d92 d2bc 2163 2b3c
000001a0: 6ca8 debc 45b9 c0bc c052 66bd bf4c 443d
000001b0: 6daa f43b 6c38 0cbe b8e4 99bd 5b07 b13b
000001c0: cf04 fe3c a924 01be a179 bf3c 1b43 863d
000001d0: 7475 00be b454 3c3d da56 be3d d307 9fbd
000001e0: 0fa2 b9bd 9754 bbbd e757 abbd ef19 9abd
000001f0: 7d88 93bd 8d27 8e3d f2ec 0dbe 2c79 95bd
00000200: 1453 3dbc cb88 d5bd fc99 193c 2c1b 1ebd
00000210: 01b1 b3bd 9f49 3f3d 90d0 683d 3aef f6bd
00000220: 4465 e1bd c88b 94bd 3d9e e8bd 0bab d8bc
00000230: 96c9 6e3d 15ac c2bc a074 1f3c cd00 a43a
00000240: d854 f93d 732e 993e 618a 0f3d bb25 6a3d
00000250: 4601 153e ac35 cbbd b9c9 0d3c e1ff 85be
00000260: 2665 e9be ed65 f639 3ba9 dd3d b1ee 93bd
00000270: 6c7e 033e 8d44 1f3e bd35 e63c b903 2cbe
00000280: e653 a9bd 7e15 90bd bbc6 82be 3fa9 47be
00000290: ae27 ccbd e8f0 0f3e 6ca3 8b3d 1117 9ebe
000002a0: 59ea 633e e651 26bc b4be a8be ee30 213e
000002b0: 3a78 cb3d f0db aebd 1c9a 293d 8d79 89bd
000002c0: 2d27 bfbd 91bf 03be b76a cbbd 7f0e 23be
000002d0: dbc9 983c 6043 4b3d 9596 fabd 317d 5b3e
000002e0: e684 613e 786f cdbe 17af 4e3c c405 0f3e
000002f0: 8d18 f9be 8f3f f4bd 5e52 9f3e 6e74 7a3e
00000300: 4e97 9d3e e494 0f3f 031b 493e 830f 1d3f
00000310: 26c2 f23d 4141 ccbd 6a56 03be 9d94 aebd
00000320: fc5f 19be c45f 6f3d 9e36 f23c 20d5 cabe
00000330: 4ccb 923e c717 2a3d a7c5 3dbf cc17 29bf
00000340: 4d64 b5be c216 99bc 468e 6fbe 6359 133e
00000350: 3a5d 07bf ac3c f73d 98fd 473e 616d 28be
00000360: 5251 e23c 9335 293e c082 28be 311c 3ebe
00000370: 1239 863d ad83 d6bd 6b3c 8dbe 8d97 8abe
00000380: ffb0 a9be e1b2 003e 232e b13e 3c96 9dbd
00000390: 886c e73e ad6e a73e cee1 81bd adae bc3e
000003a0: 281d bb3c 46a0 cebd dd00 72bd ccff db3d
000003b0: 6266 1abe 5b54 a8bd d2ee c1bc de0f 4d3d
000003c0: 314a 2bbd cc1a 943d 7984 f0bd 1814 dabe
000003d0: bd2e d5be 1f99 ebbe bcca 13bf 7dd2 6b3e
000003e0: 3199 babd 2a2d d43e 1227 6c3e 5876 e5bd
000003f0: 06ee 6abd ab6b 043e 4034 383d d469 8abe

StatefulPartitionedCall/sequential/conv2d_1/BiasAdd/ReadVariableOp:0 f4 [32]
-0.024215015 -0.071483195 0.071655534 -0.05043001 -0.06247015 -0.018836774 -0.0946818 -0.047438484
-0.057154182 -0.079332836 -0.008897457 -0.013158156 0.01014449 -0.029435305 -0.038456 -0.070404075
-0.02631513 -0.007815792 -0.11202048 -0.09231656 -0.049210444 -0.015281373 -0.0118061295 0.009330384
-0.14796604 -0.14058983 -0.027474768 0.061652303 0.0074526523 -0.08724937 -0.00071381184 -0.017286452
00000000: 915e c6bc c865 92bd 23c0 923d b38f 4ebd
00000010: b3e0 7fbd 944f 9abc 88e8 c1bd db4e 42bd
00000020: 811a 6abd 4179 a2bd a4c6 11bc 4e95 57bc
00000030: 1335 263c 4f22 f1bc 0a84 1dbd 0330 90bd
00000040: d492 d7bc cf0d 00bc fe6a e5bd 7710 bdbd
00000050: e490 49bd b95e 7abc 7f6e 41bc 78de 183c
00000060: 6984 17be c8f6 0fbe c412 e1bc 2087 7c3d
00000070: 6135 f43b ccaf b2bd 1a1f 3bba 519c 8dbc

StatefulPartitionedCall/sequential/conv2d/Conv2D/ReadVariableOp:0 f4 [16, 1, 3, 3]
0.19216444 0.42168185 0.38801786 -0.2339608 -0.014555055 0.057350766 0.02748396 -0.39347017
-0.48399714 0.10278196 0.11405595 0.12207964 0.03174815 0.05428196 0.14825146 0.091197595
0.089130946 -0.063572474 -0.09023607 0.114929244 -0.29769722 0.3995443 -0.15836425 -0.24606237
0.3700758 0.032140266 -0.5887503 0.17954461 0.07885575 0.14838922 0.08315239 0.101761006
0.18258514 0.08889638 0.09489452 0.1345172 -0.04813731 0.24531192 -0.35185558 -0.103725165
0.020442571 0.25390643 0.28497317 0.21373461 -0.68694466 0.3421893 0.0030314615 -0.50457186
0.51584417 -0.80408627 0.17250307 -0.10515934 -0.68240845 0.39410943 0.12040943 -0.16289932
-0.4510606 0.23385346 0.5214472 -0.33679697 0.21669006 0.09589678 -0.78987664 -0.08389022
-0.6726411 0.47038937 0.49071643 -0.74738216 -0.2546948 0.3897925 0.15765753 -0.25082397
0.1881584 0.15518208 0.22726169 0.018873055 0.326521 0.15412256 -0.22496754 -0.50084615
-0.41039312 -0.045451194 -0.07282781 -0.55494684 0.39436606 0.18236996 0.3171103 -0.20592037
-0.35763025 0.35042503 0.044019762 0.20369604 0.20490062 0.14960733 0.09015437 0.18471062
0.16071056 0.19718885 0.14816642 -0.2980384 0.034570865 0.2919227 -0.42748475 0.3722105
0.43007848 -0.80846786 0.0041395267 -0.054182574 0.33554667 0.32493606 0.12138261 0.2714364
-0.032246854 0.0561389 -0.6170588 -0.23773517 -0.3592779 0.00060067547 0.5007315 0.49593592
-0.6673801 -0.66425866 0.074784294 0.36846605 -0.20219855 -0.10900238 0.14048825 0.33066487
0.28457093 -0.29153585 -0.03734841 0.33663967 -0.35651785 -0.43613553 -0.1731842 0.14200014
-0.62658787 -0.1361719 -0.743265 0.30454335 0.15338233 0.10364054 0.41967082 0.10438587
00000000: c1c6 443e afe6 d73e 47aa c63e 6c93 6fbe
00000010: 5378 6ebc a3e8 6a3d 0b26 e13c ec74 c9be
00000020: 79ce f7be 597f d23d 2a96 e93d e404 fa3d
00000030: 590a 023d c356 5e3d 3bcf 173e cec5 ba3d
00000040: 498a b63d 4932 82bd b0cd b8bd 0660 eb3d
00000050: c56b 98be 1291 cc3e 3d2a 22be c6f7 7bbe
00000060: 937a bd3e 83a5 033d 57b8 16bf 8bda 373e
00000070: 207f a13d 58f3 173e cd4b aa3d 1368 d03d
00000080: 99f7 3a3e 4e0f b63d 0f58 c23d e0be 093e
00000090: a12b 45bd 0c33 7b3e 6a26 b4be dc6d d4bd
000000a0: 2e77 a73c 0600 823e 01e8 913e 3fdd 5a3e
000000b0: 9bdb 2fbf 7033 af3e 7cab 463b 9f2b 01bf
000000c0: 5d0e 043f 99d8 4dbf a5a4 303e c85d d7bd
000000d0: 52b2 2ebf b6c8 c93e 3899 f63d 14cf 26be
000000e0: 6af1 e6be 4877 6f3e 907d 053f a770 acbe
000000f0: 00e4 5d3e 8865 c43d 5b35 4abf a3ce abbd
00000100: 3532 2cbf e0d6 f03e 2f3f fb3e 7054 3fbf
00000110: 5b67 82be e292 c73e fa70 213e 006c 80be
00000120: 98ac 403e 0de8 1e3e 4ab7 683e aa9b 9a3c
00000130: c32d a73e 4ed2 1d3e e45d 66be 7437 00bf
00000140: 0c1f d2be 082b 3abd bf26 95bd ff10 0ebf
00000150: 59ea c93e 31bf 3a3e 485c a23e cadc 52be
00000160: 501b b7be e96a b33e 114e 343d b295 503e
00000170: 78d1 513e aa32 193e dba2 b83d c824 3d3e
00000180: 4f91 243e e0eb 493e f0b8 173e 7d98 98be
00000190: 2e9a 0d3d e476 953e 48df dabe 6092 be3e
000001a0: 3f33 dc3e c0f7 4ebf dea4 873b 8cee 5dbd
000001b0: c6cc ab3e 055e a63e 7297 f83d b6f9 8a3e
000001c0: 4715 04bd e7f1 653d 91f7 1dbf d970 73be
000001d0: 46f3 b7be a676 1d3a f12f 003f 50eb fd3e
000001e0: 6cd9 2abf db0c 2abf 8228 993d 95a7 bc3e
000001f0: 230d 4fbe a43c dfbd 27dc 0f3e e84c a93e
00000200: 48b3 913e 3044 95be a5fa 18bd 095c ac3e
00000210: 8289 b6be 284d dfbe 3357 31be 7c68 113e
00000220: 1068 20bf a670 0bbe 9d46 3ebf 1bed 9b3e
00000230: 4210 1d3e 7e41 d43d 18df d63e 42c8 d53d

StatefulPartitionedCall/sequential/conv2d/BiasAdd/ReadVariableOp:0 f4 [16]
0.011423264 -0.19616666 0.17738473 -0.13025787 0.14098826 0.30838522 0.20685093 0.22386009
0.04160528 -0.030085778 -0.1073978 0.18010108 0.11666966 0.14247806 0.10853729 0.24792533
00000000: a428 3b3c eadf 48be 58a4 353e 5262 05be
00000010: 3a5f 103e abe4 9d3e bbd0 533e 943b 653e
00000020: 4c6a 2a3d 7376 f6bc 61f3 dbbd 6b6c 383e
00000030: 81f0 ee3d c5e5 113e cc48 de3d 23e0 7d3e
