app/www/static/model.onnx (onnx, 170896 bytes, 6 tensors)

StatefulPartitionedCall/sequential/dense/MatMul/ReadVariableOp:0 f4 [2304, 10]
000000 71 32 42 3d 7f 16 07 3e 3f c1 11 be ed ea d5 bd
       0.047411386 0.13192175 -0.14233874 -0.10445199
000010 e2 c1 c7 bd a1 4a 6a 3d 92 ee 12 be 9d be 96 bb
       -0.09753777 0.057200078 -0.1434882 -0.0046003596
000020 80 32 b4 3d 59 0a af bd e7 8f 8a 3d 4a 3c 96 bd
       0.087986946 -0.085468955 0.067657284 -0.07335718
000030 66 43 e0 bd 76 15 b9 3d 06 0d 6d ba 12 af 2c bd
       -0.10950355 0.090372965 -0.0009042773 -0.042159148
000040 21 6f 40 3d 1a 65 24 3d ac e2 95 bd f8 a3 84 be
       0.04698098 0.04013548 -0.07318625 -0.25906348
000050 be 0a 2d 3e 6d 0d 69 bb 1f 97 b8 bb 04 98 0b bd
       0.16898629 -0.003556098 -0.0056332494 -0.03408052
000060 e8 a2 f3 3c 1c ce a8 bd 90 8e ad 3c 63 31 5a bd
       0.029740766 -0.08242437 0.021186143 -0.053269755
000070 2e 03 c9 bc 63 f4 24 bd 39 d8 99 3e 3a 8d 56 be
       -0.024537649 -0.040272128 0.30047777 -0.20952311
000080 19 45 0e bd 21 1f d0 bd 6f b2 87 bd 83 16 9f 3e
       -0.034733865 -0.10162187 -0.066258304 0.31071863
000090 aa e6 17 be 86 4b 7d 3e a9 20 e4 bd 0b d9 a3 be
       -0.14834085 0.24735841 -0.11139042 -0.32001528
0000a0 cb 5f 86 3d ed d7 59 3c be 48 cb 3c 7d 5c 3e bd
       0.0656124 0.01329611 0.02481496 -0.046474922
0000b0 bc 1b 73 3b 03 d6 9a bd 01 eb 5d 3d 60 db 9c 3b
       0.0037095388 -0.07560351 0.054179195 0.0047868937
0000c0 5f 1f 9d 3c 4b 6d 24 bd 9d a4 80 3d 97 e7 12 be
       0.019179998 -0.040143292 0.062813975 -0.14346157
0000d0 97 2c 74 3d 47 9c 79 3d be 9e 99 3d aa 84 8f be
       0.059612837 0.060940053 0.07500981 -0.28030902
0000e0 ae bd 38 be a2 64 20 3e 8d a9 41 bd 30 0d 43 3d
       -0.18041107 0.15663388 -0.047280837 0.04762
0000f0 b4 01 2f 3c 35 c2 2b bd 58 38 23 be 35 ca 89 3d
       0.010681558 -0.041933257 -0.15939462 0.06728021
000100 0c cc e2 3c d1 6a 8f 3e bb 8f 5a be a9 0a 8d 3e
       0.027685188 0.28011182 -0.21343891 0.27547196
000110 c4 a3 3f be 1a 48 58 be ab cf 02 bc 4f e4 10 bf
       -0.18714815 -0.21121255 -0.007984082 -0.5659837
000120 56 e7 00 bd a3 b4 96 bd 5b f7 be be f9 0b 36 3c
       -0.03147062 -0.073586725 -0.37298092 0.011111253
000130 40 9c 81 3e 18 3f d7 3c bd d0 a1 bc 99 73 9e 3d
       0.25314522 0.026275203 -0.019752854 0.07736892
000140 ea 59 89 3e ba 22 81 bd 39 94 2d 3d 3b e4 62 3d
       0.2682641 -0.06305452 0.042377684 0.05539344
000150 db 18 b9 3c f9 63 96 bd 9f 57 12 be 01 df 0d 3e
       0.02259486 -0.07343287 -0.14291237 0.138546
000160 4d 83 ca 3d 52 b6 b3 bc 23 ef 8d 3d 9d 23 d1 bc
       0.09888325 -0.021937523 0.06930377 -0.025529677
000170 df ad 2e bc f4 33 89 bd cd 3c f9 3d f9 2a e0 bd
       -0.010661571 -0.066993624 0.121698 -0.109456964
000180 23 0a 71 be 1a b2 62 3c 96 58 a3 bd 9e b5 79 3d
       -0.23539023 0.013836408 -0.07975881 0.06096422
000190 36 c1 e2 3d c9 ce 86 be 00 56 8a 3d cd 83 0d bb
       0.11072008 -0.2632964 0.067546844 -0.0021593452
0001a0 ad fa b4 be 89 6a 88 bd 28 4f 9f 3e 3a c6 0f be
       -0.353475 -0.06660945 0.3111508 -0.14040461
0001b0 b2 c6 38 3c 4e 63 19 bd 88 31 dd 3c 67 22 01 bb
       0.011277841 -0.03744822 0.027001157 -0.0019704343
0001c0 3d 09 ab bd 1b b7 35 3d 21 38 43 bc ca ef 23 3d
       -0.083513714 0.044364076 -0.011915238 0.040023603
0001d0 02 83 1b bd 08 85 c7 3c 6a 5c be bd b0 90 cc 3c
       -0.037966736 0.024355426 -0.0929497 0.024971336
0001e0 9f a6 3a 3e 34 d9 b0 bd 55 36 df bd d3 fe 16 3d
       0.18227623 -0.08635178 -0.10899035 0.036864113
0001f0 8f bf 6e bd 7f 42 53 bd 39 de 3e be 6e 58 15 3e
       -0.058288153 -0.051577087 -0.18639459 0.14584514
000200 f0 fd a7 3d 15 fa 01 3d 66 95 3f bd 6c 5d bd 3d
       0.082027316 0.031732637 -0.046773337 0.092463344
000210 6b 8d 85 bd 8b bd 3b be b0 29 13 be 3c 41 78 bd
       -0.06521114 -0.18334024 -0.14371371 -0.060609087
000220 2e 8e 81 3d 6c b3 a0 bd 77 ce 8e 3c 1b e0 25 3d
       0.06325947 -0.07846722 0.017432434 0.040496927
000230 9d 2b 16 3e 96 dc db 3d 52 d2 4c bd 27 9a 69 3c
       0.14665075 0.10735433 -0.050005265 0.014257944
000240 5b 41 a3 3d 5c ea eb 3d eb 61 b1 bc 46 75 d1 bd
       0.0797145 0.1151931 -0.021653136 -0.10227446
000250 28 70 f6 bd 15 83 3b be 77 8f af bd bb e5 44 3d
       -0.12033111 -0.18311723 -0.085722856 0.04807065
000260 5e 8f 99 bb df 57 ce 3c f9 c0 f0 3c 0d 0e 2d bd
       -0.00468628 0.025188385 0.029388892 -0.042249728
000270 31 61 40 bd 39 ca 75 bd 92 66 f0 bb 69 fb ac bd
       -0.04696769 -0.060007308 -0.007336446 -0.0844639
000280 64 48 cc 3c 4b 53 19 be 08 31 c2 3d f9 f7 9d 3d
       0.024936862 -0.1497318 0.09482008 0.07713313
000290 c2 bd 86 3d 65 6f 35 be d0 91 42 be 46 38 a8 3d
       0.06579162 -0.17718275 -0.19000936 0.08213858
0002a0 1a 9f f6 3c b4 a3 3a 3c c2 fe 35 3d bb 96 8f 3c
       0.030105162 0.011391569 0.04443241 0.017527929
0002b0 ec 10 00 bc ed ab 00 3c fe f2 63 3b 57 b2 ea bb
       -0.0078165345 0.00785349 0.0034782286 -0.007162373
0002c0 7a be d2 3c 24 8a 6d bd f6 ef d5 bd b8 de 4a bc
       0.025725592 -0.05799307 -0.104461595 -0.012382202
0002d0 23 65 12 bd 2c 39 ac bd 2d 87 79 3c 3e 4e 8a 3d
       -0.035740983 -0.08409342 0.015229982 0.06753205
0002e0 b5 dc de be 0d 7c 32 bd d1 49 cb 3d e6 a2 5b bd
       -0.4352776 -0.043575335 0.09926189 -0.05362215
0002f0 2f 4f 0c be 6c 02 86 3d e7 0d 94 3d f9 6d 34 3d
       -0.13702081 0.06543431 0.07229214 0.04405019
000300 08 d1 02 bd 5b a4 ef bb ef b6 af 3c 6b d7 d4 bc
       -0.03193763 -0.007313294 0.021449534 -0.025981626
000310 0a 37 2e bd 75 ba 1d bd 38 0d 03 bd 3f f5 cd bc
       -0.042532958 -0.038507897 -0.03199503 -0.025141357
000320 4d e3 f2 3c f2 53 58 bd 65 19 7c bd 6a 39 42 bb
       0.029649401 -0.05281443 -0.061547656 -0.0029636272
000330 4b 62 de bd c0 bf 8c 3c 58 be 3c bd 14 ab fe bc
       -0.10858592 0.017181277 -0.046079963 -0.031087436
000340 91 35 f4 3d d7 0a 2e be 79 20 d1 3c 6b 21 d8 3c
       0.119242795 -0.16996323 0.02552818 0.026383122
000350 e7 a5 07 3c 44 c0 1b be d9 58 bc 3d 9a ec 17 be
       0.0082793 -0.15210062 0.09196634 -0.1483635
000360 f0 70 7c 3d ea a9 0a be 1a 62 85 bd cf 3c 6c 3d
       0.061631143 -0.1354138 -0.06512852 0.05767518
000370 6d 90 a8 bd 80 e6 32 be fd a8 0d be 04 b1 6f 3d
       -0.08230672 -0.17470741 -0.13833995 0.058518425
000380 75 68 e2 bc 0e a3 48 3b a8 bd 6d 3d 02 ea 1e bd
       -0.0276377 0.0030614766 0.0580422 -0.038797386
000390 5d 2c 54 3e 89 49 6b bd 37 32 d8 3d 30 7b 86 3c
       0.20720048 -0.057443175 0.10556453 0.016416162
0003a0 43 6f bc bd c9 8b 32 3d 80 54 5c bd b4 c7 dd bc
       -0.09200909 0.04359034 -0.053791523 -0.027072765
0003b0 f5 a3 53 be ac cc 06 bd 2c 63 6c bc eb 5d 4f 3d
       -0.20668013 -0.032910034 -0.014427941 0.050626677
0003c0 15 c4 97 3d ce 76 3d 3d 09 66 43 bd b5 e2 95 3d
       0.074104466 0.04625588 -0.04770473 0.073186316
0003d0 09 b9 9a 3d 62 4a 6e 3d 19 a9 14 be 86 f1 12 be
       0.07554824 0.058176406 -0.1451763 -0.14349946
0003e0 3b 45 1a bd 64 cb b7 bd f1 7b eb bc 67 e5 30 bd
       -0.03766368 -0.089743406 -0.028745623 -0.043187525
0003f0 1a 75 2d 3d 77 be d5 bc 74 af a6 bc ac 5f 21 3d
       0.042348005 -0.026091797 -0.020347334 0.03939788

StatefulPartitionedCall/sequential/dense/BiasAdd/ReadVariableOp:0 f4 [10]
000000 2a e3 80 bd d9 ff 27 3e b1 f0 d2 bd 71 be b7 3c
       -0.06293328 0.16406192 -0.102998145 0.022429677
000010 b2 69 e6 3d c8 90 c9 3c 15 76 d1 bd 16 88 f4 bb
       0.112506285 0.02460517 -0.102276005 -0.007462512
000020 f7 78 46 3c de 23 1e be
       0.012113801 -0.1544337

StatefulPartitionedCall/sequential/conv2d_1/Conv2D/ReadVariableOp:0 f4 [64, 32, 3, 3]
000000 6b e1 89 bd 11 91 a2 bd 0a 73 98 3d 6d d5 0c be
       -0.06732448 -0.079378255 0.07443817 -0.1375329
000010 45 51 22 bf e7 2e c5 be 2d 03 c6 bd b6 f4 a2 be
       -0.6340526 -0.38512346 -0.096685745 -0.31827325
000020 da 3a c3 be 1a b5 c8 be 2e 1f 42 be a6 b1 0f 3d
       -0.38130838 -0.3920067 -0.18957207 0.035081528
000030 21 ad 85 be 48 7d 3c be 51 59 05 3e 80 bb 40 be
       -0.2610865 -0.18407166 0.13022353 -0.18821526
000040 48 6c 9e be 81 e0 31 bd 7d 60 ad bd 16 27 88 bd
       -0.30941987 -0.043426994 -0.08465669 -0.0664808
000050 a1 ff a7 3d cf 50 ea 3c 6c 72 50 3d 55 a0 67 bc
       0.08203054 0.028602986 0.05089037 -0.014137347
000060 a5 a7 cd 3d 15 da 2c 3e 2d 57 b9 3c 14 23 8a 3d
       0.10041741 0.16880067 0.022624576 0.06744972
000070 cb e9 98 bc 1d 79 dc bd 00 1c 31 bd c9 70 9c 3d
       -0.018666169 -0.10765288 -0.043239594 0.076386996
000080 f6 37 f1 be 12 06 3a 3e b7 4f 6a 3e 02 93 f5 bd
       -0.47113007 0.18166378 0.22881971 -0.1199093
000090 09 7f 7e 3d d1 12 e9 bc 2d f2 33 bd d3 8c c2 3b
       0.06213287 -0.028451355 -0.04393213 0.0059371977
0000a0 ef 73 5d bc 8d 1f e2 be 17 a5 7f 39 03 1e 1d 3e
       -0.01351641 -0.44164696 0.00024380196 0.1534348
0000b0 cc f1 41 bf 7f fd 8f 3e 7a df 60 3e 11 f0 21 3e
       -0.7575958 0.2812309 0.2196025 0.15814234
0000c0 04 8e 7f bd d2 14 a7 bc a1 a5 7e bb 56 47 81 bc
       -0.062391296 -0.02039567 -0.0038856047 -0.015781086
0000d0 b7 e4 fd bd 7a b3 46 3d 4e aa 7b 3d 6c cf 44 be
       -0.123971395 0.048511006 0.061441712 -0.1921975
0000e0 d9 05 71 bd 8a 26 29 bd 1f eb 30 bc fb 62 a2 bc
       -0.058843467 -0.04129652 -0.010798245 -0.019822588
0000f0 ef 60 cb 3d 76 eb 52 3e 0e 23 d3 bc ea ba a5 be
       0.09930598 0.20597634 -0.025773551 -0.32369167
000100 5b 8f 7d 3e ae 9b 35 3e ac f2 32 be 36 49 6e 3e
       0.24761717 0.17735168 -0.17475384 0.23270115
000110 fc 16 88 3e 5a 7f f2 3d 16 d7 91 3e c0 e6 95 3e
       0.26580036 0.11840697 0.2848441 0.2927761
000120 bb 25 a8 bd 62 1b 0c be 1b a3 be 3c 8e b3 c4 bd
       -0.082103215 -0.1368232 0.023271134 -0.0960456
000130 3a a8 8a be 2d 4a 89 bd 58 ca 35 bd 00 0d 9b be
       -0.27081472 -0.06703601 -0.044382423 -0.30283356
000140 4a 25 9d be 0e 0d a3 be 9e e0 23 3e 4b 10 0c 3d
       -0.30692512 -0.31845897 0.16003653 0.034195226
000150 da b0 3f bd dc 28 61 3e 2f 83 5d bc 1e 30 90 3d
       -0.04679952 0.21988243 -0.013520046 0.070404276
000160 f9 df 2a 3e fa eb 8a 3e 03 c3 12 3e 73 70 0e 3e
       0.16687001 0.2713316 0.14332204 0.13910083
000170 1d a9 e7 3d f9 32 10 3e 70 14 9a ba d3 b6 04 3c
       0.11311553 0.14081945 -0.0011755358 0.008100229
000180 9d fa d7 3d f6 b3 a2 bd 56 78 59 bd 46 f3 45 3d
       0.105458476 -0.07944481 -0.053093277 0.048327707
000190 2f 98 3d 3e 65 19 e3 3d ad 05 07 be 17 47 7c 3d
       0.18515085 0.11088828 -0.13185759 0.061591234
0001a0 65 0e 9f 3d 95 36 c6 bd 44 a0 71 bc 65 f7 38 3d
       0.077664174 -0.096783794 -0.014747683 0.04515781
0001b0 62 21 bd be 88 f6 d1 be 31 a6 a7 bb cb c7 1d be
       -0.36939532 -0.410084 -0.005116247 -0.15408246
0001c0 b9 bc b6 be 29 8d 7c bd 6c 97 ec 3c b8 1f 8c be
       -0.3569086 -0.06165806 0.028880797 -0.2736795
0001d0 1d 96 fc be a3 d0 d6 bd 8d 51 21 3e 63 1b 16 3e
       -0.49333277 -0.10489013 0.15753765 0.14658885
0001e0 2f 4d fe bd 55 b1 04 3e f6 ff 08 3e e9 f8 b5 3d
       -0.12417065 0.12958272 0.13378891 0.088853665
0001f0 f1 a9 c5 3d 38 45 69 3e 9c 65 8b be 01 2c 03 be
       0.096515544 0.22780311 -0.2722596 -0.12809755
000200 83 97 9e bd c0 55 80 be df 66 32 be 84 c8 95 bd
       -0.07743742 -0.25065422 -0.17422055 -0.07313636
000210 18 b4 98 bb f2 28 21 bc 5e 5d 2b 3e 4d 2d 48 3d
       -0.0046601407 -0.009836422 0.16734836 0.048871327
000220 eb b3 d6 3d 2f 9a 6b 3e 9a 38 de bd 04 27 8f be
       0.104835354 0.23008035 -0.1085064 -0.27959454
000230 5c d9 ad be c9 da 85 bd 50 d1 5a be 01 0e 12 bf
       -0.33954895 -0.065358706 -0.21368909 -0.5705262
000240 8e 83 ac 3d e2 c9 d3 3c 6c b0 2c 3d 50 93 b2 bc
       0.084235296 0.025853101 0.042160437 -0.02179876
000250 fe ed 42 be 23 de 87 be e7 d1 4b bb 64 e1 1e bd
       -0.190361 -0.26536664 -0.0031100453 -0.038789168
000260 28 2e 1b bf f0 d1 a1 be c1 44 09 bd 18 89 e9 bc
       -0.60617304 -0.31605482 -0.033512834 -0.028507754
000270 80 57 20 be db a6 95 bd 89 de df 3d f7 66 85 bc
       -0.15658379 -0.07307216 0.10931117 -0.016284449
000280 6f 98 5a 3e 6f e0 7a 3e 52 6c 52 3e dd 68 a2 3d
       0.21347211 0.24499677 0.20549133 0.07930157
000290 fb ad 80 bd 86 53 a0 3d 43 f7 a7 3d 29 f6 da be
       -0.06283184 0.07828431 0.08201458 -0.4276593
0002a0 74 f0 48 bd bd b0 52 3e d2 d0 6c bf 99 af 56 be
       -0.04905744 0.20575233 -0.92506135 -0.20965423
0002b0 c5 4f a7 bd 2b 62 c7 3d b9 15 41 be 6d 1c cb bd
       -0.08169512 0.09735521 -0.18855943 -0.09917531
0002c0 11 89 22 3d 3b b2 0b be be 80 a1 bb 17 4f 9c 3c
       0.039681498 -0.13642208 -0.0049286773 0.019080682
0002d0 7d 0b b9 bd af b3 c7 3c 0b 37 86 3c 86 fd 94 be
       -0.09035394 0.024377672 0.016383668 -0.29099673
0002e0 f2 81 5b be d2 45 0e be 27 90 56 3c bb aa 27 3e
       -0.21436289 -0.13893822 0.013095892 0.16373722
0002f0 3a 9b 05 be b4 16 fa be 72 82 d0 be 78 3f 76 3d
       -0.13047495 -0.48845446 -0.40724522 0.060119122
000300 c5 e3 8a be 20 f4 0f bf 71 a6 6a 3e 05 e7 7a bd
       -0.271269 -0.5623188 0.22915055 -0.061255474
000310 5c 18 cb be 54 b2 28 be ec 8b e7 3a 2b d8 cd bd
       -0.39667022 -0.16474277 0.0017665601 -0.100509964
000320 bb 4f d2 3d 3b 4f 74 be f7 4f 84 be fb f3 67 bd
       0.10269114 -0.23858349 -0.25842258 -0.056629162
000330 5c 5e 49 bb db fe 6d be 60 08 2a be e7 f6 fb 3c
       -0.0030726409 -0.23241751 -0.16604757 0.03075738
000340 17 c0 53 3d 22 39 a6 3d af 81 ab 3c 43 ae 8d 3d
       0.051696863 0.08116366 0.020935861 0.069180034
000350 e1 21 0f bd a2 b5 fe 3c bb b6 b8 3c 7c df d1 3c
       -0.03494442 0.031092469 0.02254807 0.025619261
000360 c7 de 9d bb 6f 7c c2 bd ff cf 68 bc db 83 37 bd
       -0.004817817 -0.0949639 -0.014209746 -0.04480348
000370 87 72 a9 be 40 19 d9 bd e9 6c 03 bd c4 b8 75 be
       -0.3309519 -0.10600519 -0.032086287 -0.23996264
000380 2d 6f ad be 7b cc 9c 3c 3d 4e f3 3d 9f 18 17 3e
       -0.33873883 0.019140473 0.11880157 0.14755486
000390 4b 49 d7 bd 16 86 d1 bd e0 9e 47 bd f2 96 45 be
       -0.105120264 -0.10230653 -0.0487355 -0.19295862
0003a0 9c da 91 be 12 df 78 be 9e 2b 98 3d a3 d3 ea bd
       -0.28487098 -0.24303845 0.07430194 -0.11466148
0003b0 13 2c 25 be c9 e4 ac bc 2e 5b 3f 39 3b 29 b5 be
       -0.16130094 -0.021105187 0.00018249147 -0.3538302
0003c0 61 7e 1b 3e 28 cc aa 3d a7 b4 f1 be 1c 1f de 3a
       0.15184928 0.08339721 -0.4720814 0.0016946527
0003d0 84 09 82 3d 87 29 48 3d 47 ae 86 bd f9 20 00 be
       0.06349471 0.04886773 -0.065762095 -0.12512578
0003e0 b3 8d ba bc dd a1 e4 bd 0b 69 88 be 2a e9 a4 bd
       -0.022772646 -0.111636855 -0.2664264 -0.08052285
0003f0 44 92 42 3e b2 75 19 3e 84 cf b2 3d 70 8f a1 3d
       0.19001108 0.14986303 0.08730987 0.07888687

StatefulPartitionedCall/sequential/conv2d_1/BiasAdd/ReadVariableOp:0 f4 [64]
000000 8d d1 ca bd b2 c3 29 bc 6d bf 31 3e 52 5f 96 bd
       -0.0990325 -0.010361599 0.1735818 -0.073424
000010 03 5e c6 bb 80 be 90 bd 80 6e b5 bc ab 54 12 bd
       -0.0060536875 -0.07067585 -0.022147417 -0.035725277
000020 de 6a 1a bd 42 52 5b bd ed 4b 09 be 6c 18 73 bd
       -0.037699573 -0.053545244 -0.1340787 -0.059349462
000030 b7 13 cb 39 be 06 8d bd f4 06 31 3e 2c 01 37 bd
       0.00038733866 -0.068860516 0.17287809 -0.044678852
000040 d5 8b 09 bd 93 38 14 3e 81 2c f1 bc 1b 36 43 3c
       -0.03358062 0.14474706 -0.029440166 0.011914755
000050 00 8b c4 bc 3f c2 e6 bc 0e e7 69 bd 23 af 8b bd
       -0.023992062 -0.028168796 -0.057105117 -0.06820514
000060 c2 ac 1d 3e 53 2a b2 bc df a8 43 bd ef 19 62 be
       0.15397933 -0.021748697 -0.04776847 -0.22080205
000070 dd 69 6f bd c9 ca 22 bd 16 5d b6 bd c5 03 8d bd
       -0.05845057 -0.039744172 -0.089044735 -0.068854846
000080 a1 a9 02 be aa 33 cd bc cc 04 99 ba 0c 99 02 be
       -0.12760021 -0.02504905 -0.0011674403 -0.12753695
000090 dc 9c 19 bd 5f 29 86 bd 1a b2 a4 bd c1 32 36 be
       -0.03750311 -0.0655086 -0.08041783 -0.17792799
0000a0 fc ae e3 bc 37 d4 c5 bd b7 26 99 bd f7 20 4e bd
       -0.0277934 -0.096596174 -0.074780874 -0.050324406
0000b0 b8 e8 81 bd 7e 9f cb bc 02 5f ba 3c 68 83 33 bd
       -0.06343216 -0.024856325 0.022750381 -0.04382649
0000c0 07 09 f9 bd 6d 9b 31 bd ca fa f8 bc 3f 5b 65 bd
       -0.12159925 -0.043361116 -0.030393023 -0.055995222
0000d0 d6 86 c4 bd ae d5 7d be d9 c9 1b bc a4 37 c3 bd
       -0.095960304 -0.24788544 -0.009508573 -0.09532097
0000e0 7f 01 54 bd e6 f6 e4 3d b6 02 b1 bd 6c 97 12 bd
       -0.05175924 0.11179905 -0.08643095 -0.03578894
0000f0 c9 1e 9e bd d4 35 16 bd f0 c5 a9 bc b5 8f 5a bd
       -0.077207156 -0.03667243 -0.020724267 -0.053359706

StatefulPartitionedCall/sequential/conv2d/Conv2D/ReadVariableOp:0 f4 [32, 1, 3, 3]
000000 6b da 5e 3e d1 bd 87 3e bd fb 9a 3e d1 e1 90 3d
       0.21763007 0.26512006 0.30270186 0.07074321
000010 97 cb 99 3d e5 6e d9 bd d1 8f 49 be 27 1c a4 be
       0.07509535 -0.106168546 -0.19683768 -0.3205273
000020 dc 96 a4 be 76 fa 5b be 50 77 19 bf e1 3d 04 be
       -0.32146347 -0.21482262 -0.5994768 -0.1291423
000030 0f 52 bf bd 04 29 a2 be f1 67 bd 3d a3 6a d7 3d
       -0.09341823 -0.31671917 0.09248341 0.10518386
000040 ca 23 a0 3e 2f 28 a3 3e 81 c9 be 3d dd 5d 82 be
       0.31277305 0.31866595 0.093157776 -0.25462237
000050 ec 64 44 3c f9 1c 78 3d cb c6 44 be 0a 6d ca be
       0.011986952 0.060574505 -0.19216458 -0.39536315
000060 65 01 8a 3e 60 da ad 3e 78 1c 5f 3d 3e 18 9f 3c
       0.2695419 0.3395567 0.05447051 0.01942074
000070 28 ed 75 be 17 cc 90 3d 03 21 99 3e 58 9c 1e be
       -0.24016249 0.07070177 0.29907998 -0.15489328
000080 26 15 4d be 11 48 92 3e 8f 66 0d 3e 46 b0 a6 be
       -0.20027599 0.28570607 0.13808654 -0.3255636
000090 0c 24 51 3e 3e 55 b6 bb 17 10 4e be 01 b9 5b 3e
       0.20423907 -0.005564361 -0.20123325 0.21457292
0000a0 d9 aa f8 3b 7f ce 4e be 35 7d 4f 3e 50 30 62 be
       0.007588726 -0.2019596 0.20262606 -0.22088742
0000b0 d8 be 17 be 9f 7d 15 3e d9 21 50 3d e7 ed 60 be
       -0.14818895 0.14598702 0.05081353 -0.21965753
0000c0 30 08 42 3d a8 0d 17 bf ef f6 5a 3e 1d 2f 12 be
       0.04737109 -0.5900521 0.2138326 -0.14275785
0000d0 93 6c 27 3d 2f 2f a1 3e e5 a1 0b bd fd d1 fd bd
       0.04087503 0.3148131 -0.03408994 -0.12393568
0000e0 52 78 90 be 9c 78 33 3e 7a b3 53 3c 8c f4 b6 be
       -0.28216797 0.17526478 0.0129212085 -0.3573345
0000f0 5e cb 75 3e ad 1d b7 3e 09 88 ed bb 4b 59 a3 be
       0.2400336 0.35764828 -0.0072488827 -0.31904063
000100 e2 c4 ba 3e 4b 61 47 3e 0b f5 e0 be c4 35 26 3e
       0.36478335 0.19470708 -0.43936953 0.16231447
000110 5d 60 a3 3e a7 76 ad be fc 00 66 be b1 a7 46 3e
       0.31909457 -0.33879587 -0.22461313 0.19399907
000120 d5 88 f0 bd 8c f4 79 be 34 97 49 be 0a 45 8f be
       -0.11744849 -0.24409693 -0.19686586 -0.2798236
000130 00 f1 a1 3b dc cf 69 3e 5e 40 67 3e 49 e1 65 3e
       0.0049420595 0.22833198 0.22583148 0.2244922
000140 c9 ad 40 3d 7f 4f 04 be be 35 54 bd eb 10 52 3e
       0.047040734 -0.1292095 -0.051809065 0.20514266
000150 8f 67 04 3d c9 f7 94 3d e9 69 29 3e 83 15 dd be
       0.032325324 0.07273824 0.16544308 -0.43180475
000160 59 4d 70 bc 4c c2 db 3d ce 0d 8a be 51 6a 2d be
       -0.014666879 0.107304186 -0.26963657 -0.16935088
000170 dc b7 be 3d 08 b7 09 be 81 57 7c 3e d7 41 1d 3e
       0.09312412 -0.13448727 0.24642755 0.15357147
000180 47 68 0f 3e 13 47 6e 3d 40 2b 14 be 5a a1 32 3c
       0.14004622 0.05817325 -0.14469624 0.010902727
000190 bd 13 a1 be 22 83 a5 bd 2f 8c 91 be 9a bf a1 3d
       -0.31460372 -0.08081652 -0.28427264 0.07897873
0001a0 ac cb 21 3e eb e5 c6 bc ff 72 4a 3d 12 ab 8f 3e
       0.15800351 -0.024279555 0.049426075 0.28060204
0001b0 a2 65 e8 bd 63 f6 44 bd b4 be 34 be 21 f6 2e be
       -0.1134751 -0.048086535 -0.17650872 -0.17086078
0001c0 56 d0 90 be 96 f3 5b be 69 44 af 3e 45 ce 86 3e
       -0.28283948 -0.2147964 0.3423188 0.26329246
0001d0 19 31 5c 3e ae 53 92 be a8 a4 c2 3b 15 31 89 3d
       0.21503104 -0.28579468 0.0059400387 0.06698815
0001e0 d3 74 c5 3b 22 44 24 3c 09 48 75 3e b3 cb 71 be
       0.0060258894 0.01002601 0.2395326 -0.23612861
0001f0 91 d5 e7 bb 81 63 29 3e fe 1c a5 3a b6 1b b9 3e
       -0.0070750196 0.16541864 0.0012597141 0.36153954
000200 e6 9f 01 3f 8c ff a5 be 39 25 9c be f6 bb 6c 3e
       0.5063461 -0.3242153 -0.3049715 0.23118576
000210 51 eb 9a bd 3e 37 c3 be 3d 7a a3 be 72 fb bd 3d
       -0.07564414 -0.38128084 -0.31929198 0.09276475
000220 be 70 6f 3e ab ae f6 3d 38 59 f7 3d 45 8b 54 3d
       0.23382851 0.12045034 0.12077564 0.05189063
000230 05 94 f1 be 15 f2 27 3c d2 eb 76 be 84 aa 35 3d
       -0.47183242 0.010250588 -0.24113396 0.04435207
000240 2e 11 0b 3e b1 ab a5 3d 8a 6d 48 be 91 88 57 3e
       0.13580772 0.08089388 -0.19573036 0.2104819
000250 e6 b5 77 39 ab 0a 8a be 48 66 ee 3d 17 c3 cd be
       0.00023623518 -0.26961264 0.11640602 -0.40187904
000260 3a f1 45 3e 55 50 c9 3c de 03 30 3e e1 92 10 3e
       0.19330302 0.024574438 0.17188975 0.1411853
000270 49 29 82 bd 0f 90 15 3e ab db 1c 3d 57 38 cb be
       -0.06355531 0.14605735 0.03829543 -0.3969142
000280 a6 7c 11 be 90 0d 8e 3d b0 f2 61 3e 9c 2a 7c 3d
       -0.14207706 0.069361806 0.22065234 0.061564073
000290 ed 5d a8 be 7e fb 2b 3e ae 5a 31 3e e1 10 8c be
       -0.3288416 0.16795155 0.17319748 -0.27356628
0002a0 60 65 e1 3d 75 59 89 bd 24 2e 1b be 97 12 ee 3d
       0.11005664 -0.06706516 -0.1515432 0.116246395
0002b0 d5 05 80 3d aa bf b4 3d 7e 59 b8 3d f6 b4 b3 3d
       0.06251112 0.088256195 0.09001444 0.0877475
0002c0 c8 2f 89 3d ed f0 e7 3b 1c b6 b9 3d 6f c4 98 3d
       0.06698567 0.007078281 0.09067938 0.07459342
0002d0 74 91 27 bc 88 27 bd bd 9c 3d b4 3d 24 5f 55 be
       -0.01022755 -0.092360556 0.088008136 -0.20837075
0002e0 6f 95 68 3e c0 23 2c 3e 81 4b 10 3e dd 0a 21 bd
       0.22713254 0.16810513 0.14091302 -0.039317
0002f0 df 24 b8 be 51 e7 85 be fc 5c 05 bf c8 08 d4 be
       -0.3596563 -0.26153043 -0.5209501 -0.4141295
000300 ba 65 67 3e 75 54 03 3d 67 2e 16 bd 42 8d 9a 3e
       0.225974 0.032062966 -0.036665346 0.30185896
000310 13 17 8f 3e 7b 8d 99 3e f6 08 39 be 31 8d 82 be
       0.27947292 0.29990754 -0.18069825 -0.25498345
000320 41 33 44 3e 8b 01 e7 3d 1d df 35 3e 5f 05 9c be
       0.19160177 0.11279591 0.17760892 -0.30472848
000330 db 4c f4 3d fc 42 83 bc 5b a9 d4 3d 5e 00 0b be
       0.119287215 -0.016023152 0.103838645 -0.13574359
000340 6a 43 c9 3c 9f d4 0c bc b3 41 17 bd 23 2a 54 bd
       0.024568278 -0.008595615 -0.03692789 -0.051797997
000350 54 f5 c9 bd 28 76 40 bd 9e 7f 08 be a2 5a 5a bd
       -0.09861246 -0.046987683 -0.13329932 -0.05330909
000360 33 9c a5 be 69 06 58 be 17 68 2d bd 8c c3 d7 bd
       -0.32345733 -0.21096195 -0.042335596 -0.105353445
000370 4d 64 1e 3d d5 a3 cc 3d e6 6a 90 3e 8c 17 67 3e
       0.038669873 0.09992186 0.28206557 0.22567576
000380 a8 1a a5 3d 26 30 5b 3c d3 a4 89 be cc b1 9b bd
       0.08061725 0.013378179 -0.26883563 -0.076022714
000390 4e e4 e5 be 5a 66 de bd c5 2e 91 3d b2 e6 07 3e
       -0.44900745 -0.10859366 0.07088999 0.13271597
0003a0 79 b6 9b 3e 03 88 5b 3e 3b c0 d6 3c 97 1b ae be
       0.30412653 0.21438603 0.02621471 -0.34005424
0003b0 4b 1e 09 bf bd 7d 9e 3e df 94 25 3e c9 70 bc be
       -0.5356185 0.30955306 0.16170071 -0.36804798
0003c0 cc 30 c8 3e df f4 ae 3e 66 80 92 be 36 01 58 3e
       0.3909973 0.34171197 -0.28613585 0.21094212
0003d0 e6 bc bc 3d 35 41 d9 3d b0 eb 11 3e 7c 58 f4 bd
       0.09215717 0.106081404 0.14250064 -0.119309396
0003e0 2c 8a 7a be 27 89 a5 3d 1e 80 dc be be 43 8b be
       -0.24466771 0.080828 -0.43066496 -0.2720012
0003f0 65 0f 2e 3e a8 50 64 be be 3f b0 bd 56 ae 62 3e
       0.1699806 -0.22296393 -0.08605908 0.22136816

StatefulPartitionedCall/sequential/conv2d/BiasAdd/ReadVariableOp:0 f4 [32]
000000 2f aa 22 bd 29 8f dd bd 0f 70 2d bd bb 83 8b 3d
       -0.03971308 -0.10818321 -0.042343196 0.06812235
000010 e7 88 64 3d f6 e8 82 3d bb 73 21 bc e2 ff 3c 3d
       0.055794623 0.0639209 -0.009854252 0.046142466
000020 94 ae 8a 3c 4b 59 45 bc 23 3a 1d bc 4e 0a 75 3d
       0.016928948 -0.012045215 -0.00959638 0.05982428
000030 d2 c9 26 3d 22 50 33 bc bc 5a b6 3d d6 40 f0 bc
       0.040719815 -0.010944398 0.08904025 -0.029327791
000040 08 7c 51 3d da 07 3d be ca 8b a7 3d be f1 17 be
       0.051143676 -0.18460026 0.081809595 -0.14838311
000050 1d 4a 0d bc c5 6a 10 be 89 9e 02 3c 55 8d c9 bc
       -0.008623627 -0.1410323 0.007972368 -0.024603525
000060 64 6b b9 bd e0 e3 7b 3d 98 28 e8 3d b2 3d 07 be
       -0.09053686 0.061496615 0.11335868 -0.13207129
000070 76 61 03 3d e7 57 5f 3d ca df 95 3e 8e 0f 70 bd
       0.032075368 0.05452719 0.292723 -0.058608584
